CS143Generator(
  (sub_mean): MeanShift(3, 3, kernel_size=(1, 1), stride=(1, 1))
  (add_mean): MeanShift(3, 3, kernel_size=(1, 1), stride=(1, 1))
  (Main): Generator(
    (Stem): GeneratorPrologLayer(
      (LinearLayer): Conv2d(3, 256, kernel_size=(3, 3), stride=(1, 1), padding=(1, 1), bias=False, padding_mode=reflect)
      (NoiseLayer): NoiseInjector()
      (NonLinearity): BiasedActivation()
      (ToFeatures): Conv2d(256, 512, kernel_size=(1, 1), stride=(1, 1), bias=False)
    )
    (Stages): ModuleList(
      (0): GeneratorStage(
        (MainBlocks): ModuleList(
          (0): GeneratorBlock(
            (LinearLayer1): Conv2d(256, 64, kernel_size=(3, 3), stride=(1, 1), padding=(1, 1), bias=False, padding_mode=reflect)
            (LinearLayer2): Conv2d(64, 256, kernel_size=(3, 3), stride=(1, 1), padding=(1, 1), bias=False, padding_mode=reflect)
            (NoiseLayer1): NoiseInjector()
            (NoiseLayer2): NoiseInjector()
            (NonLinearity1): BiasedActivation()
            (NonLinearity2): BiasedActivation()
          )
          (1): GeneratorBlock(
            (LinearLayer1): Conv2d(256, 64, kernel_size=(3, 3), stride=(1, 1), padding=(1, 1), bias=False, padding_mode=reflect)
            (LinearLayer2): Conv2d(64, 256, kernel_size=(3, 3), stride=(1, 1), padding=(1, 1), bias=False, padding_mode=reflect)
            (NoiseLayer1): NoiseInjector()
            (NoiseLayer2): NoiseInjector()
            (NonLinearity1): BiasedActivation()
            (NonLinearity2): BiasedActivation()
          )
          (2): GeneratorBlock(
            (LinearLayer1): Conv2d(256, 64, kernel_size=(3, 3), stride=(1, 1), padding=(1, 1), bias=False, padding_mode=reflect)
            (LinearLayer2): Conv2d(64, 256, kernel_size=(3, 3), stride=(1, 1), padding=(1, 1), bias=False, padding_mode=reflect)
            (NoiseLayer1): NoiseInjector()
            (NoiseLayer2): NoiseInjector()
            (NonLinearity1): BiasedActivation()
            (NonLinearity2): BiasedActivation()
          )
          (3): GeneratorBlock(
            (LinearLayer1): Conv2d(256, 64, kernel_size=(3, 3), stride=(1, 1), padding=(1, 1), bias=False, padding_mode=reflect)
            (LinearLayer2): Conv2d(64, 256, kernel_size=(3, 3), stride=(1, 1), padding=(1, 1), bias=False, padding_mode=reflect)
            (NoiseLayer1): NoiseInjector()
            (NoiseLayer2): NoiseInjector()
            (NonLinearity1): BiasedActivation()
            (NonLinearity2): BiasedActivation()
          )
          (4): GeneratorBlock(
            (LinearLayer1): Conv2d(256, 64, kernel_size=(3, 3), stride=(1, 1), padding=(1, 1), bias=False, padding_mode=reflect)
            (LinearLayer2): Conv2d(64, 256, kernel_size=(3, 3), stride=(1, 1), padding=(1, 1), bias=False, padding_mode=reflect)
            (NoiseLayer1): NoiseInjector()
            (NoiseLayer2): NoiseInjector()
            (NonLinearity1): BiasedActivation()
            (NonLinearity2): BiasedActivation()
          )
          (5): GeneratorBlock(
            (LinearLayer1): Conv2d(256, 64, kernel_size=(3, 3), stride=(1, 1), padding=(1, 1), bias=False, padding_mode=reflect)
            (LinearLayer2): Conv2d(64, 256, kernel_size=(3, 3), stride=(1, 1), padding=(1, 1), bias=False, padding_mode=reflect)
            (NoiseLayer1): NoiseInjector()
            (NoiseLayer2): NoiseInjector()
            (NonLinearity1): BiasedActivation()
            (NonLinearity2): BiasedActivation()
          )
          (6): GeneratorBlock(
            (LinearLayer1): Conv2d(256, 64, kernel_size=(3, 3), stride=(1, 1), padding=(1, 1), bias=False, padding_mode=reflect)
            (LinearLayer2): Conv2d(64, 256, kernel_size=(3, 3), stride=(1, 1), padding=(1, 1), bias=False, padding_mode=reflect)
            (NoiseLayer1): NoiseInjector()
            (NoiseLayer2): NoiseInjector()
            (NonLinearity1): BiasedActivation()
            (NonLinearity2): BiasedActivation()
          )
          (7): GeneratorBlock(
            (LinearLayer1): Conv2d(256, 64, kernel_size=(3, 3), stride=(1, 1), padding=(1, 1), bias=False, padding_mode=reflect)
            (LinearLayer2): Conv2d(64, 256, kernel_size=(3, 3), stride=(1, 1), padding=(1, 1), bias=False, padding_mode=reflect)
            (NoiseLayer1): NoiseInjector()
            (NoiseLayer2): NoiseInjector()
            (NonLinearity1): BiasedActivation()
            (NonLinearity2): BiasedActivation()
          )
          (8): GeneratorBlock(
            (LinearLayer1): Conv2d(256, 64, kernel_size=(3, 3), stride=(1, 1), padding=(1, 1), bias=False, padding_mode=reflect)
            (LinearLayer2): Conv2d(64, 256, kernel_size=(3, 3), stride=(1, 1), padding=(1, 1), bias=False, padding_mode=reflect)
            (NoiseLayer1): NoiseInjector()
            (NoiseLayer2): NoiseInjector()
            (NonLinearity1): BiasedActivation()
            (NonLinearity2): BiasedActivation()
          )
          (9): GeneratorBlock(
            (LinearLayer1): Conv2d(256, 64, kernel_size=(3, 3), stride=(1, 1), padding=(1, 1), bias=False, padding_mode=reflect)
            (LinearLayer2): Conv2d(64, 256, kernel_size=(3, 3), stride=(1, 1), padding=(1, 1), bias=False, padding_mode=reflect)
            (NoiseLayer1): NoiseInjector()
            (NoiseLayer2): NoiseInjector()
            (NonLinearity1): BiasedActivation()
            (NonLinearity2): BiasedActivation()
          )
          (10): GeneratorBlock(
            (LinearLayer1): Conv2d(256, 64, kernel_size=(3, 3), stride=(1, 1), padding=(1, 1), bias=False, padding_mode=reflect)
            (LinearLayer2): Conv2d(64, 256, kernel_size=(3, 3), stride=(1, 1), padding=(1, 1), bias=False, padding_mode=reflect)
            (NoiseLayer1): NoiseInjector()
            (NoiseLayer2): NoiseInjector()
            (NonLinearity1): BiasedActivation()
            (NonLinearity2): BiasedActivation()
          )
          (11): GeneratorBlock(
            (LinearLayer1): Conv2d(256, 64, kernel_size=(3, 3), stride=(1, 1), padding=(1, 1), bias=False, padding_mode=reflect)
            (LinearLayer2): Conv2d(64, 256, kernel_size=(3, 3), stride=(1, 1), padding=(1, 1), bias=False, padding_mode=reflect)
            (NoiseLayer1): NoiseInjector()
            (NoiseLayer2): NoiseInjector()
            (NonLinearity1): BiasedActivation()
            (NonLinearity2): BiasedActivation()
          )
          (12): GeneratorBlock(
            (LinearLayer1): Conv2d(256, 64, kernel_size=(3, 3), stride=(1, 1), padding=(1, 1), bias=False, padding_mode=reflect)
            (LinearLayer2): Conv2d(64, 256, kernel_size=(3, 3), stride=(1, 1), padding=(1, 1), bias=False, padding_mode=reflect)
            (NoiseLayer1): NoiseInjector()
            (NoiseLayer2): NoiseInjector()
            (NonLinearity1): BiasedActivation()
            (NonLinearity2): BiasedActivation()
          )
          (13): GeneratorBlock(
            (LinearLayer1): Conv2d(256, 64, kernel_size=(3, 3), stride=(1, 1), padding=(1, 1), bias=False, padding_mode=reflect)
            (LinearLayer2): Conv2d(64, 256, kernel_size=(3, 3), stride=(1, 1), padding=(1, 1), bias=False, padding_mode=reflect)
            (NoiseLayer1): NoiseInjector()
            (NoiseLayer2): NoiseInjector()
            (NonLinearity1): BiasedActivation()
            (NonLinearity2): BiasedActivation()
          )
          (14): GeneratorBlock(
            (LinearLayer1): Conv2d(256, 64, kernel_size=(3, 3), stride=(1, 1), padding=(1, 1), bias=False, padding_mode=reflect)
            (LinearLayer2): Conv2d(64, 256, kernel_size=(3, 3), stride=(1, 1), padding=(1, 1), bias=False, padding_mode=reflect)
            (NoiseLayer1): NoiseInjector()
            (NoiseLayer2): NoiseInjector()
            (NonLinearity1): BiasedActivation()
            (NonLinearity2): BiasedActivation()
          )
          (15): GeneratorBlock(
            (LinearLayer1): Conv2d(256, 64, kernel_size=(3, 3), stride=(1, 1), padding=(1, 1), bias=False, padding_mode=reflect)
            (LinearLayer2): Conv2d(64, 256, kernel_size=(3, 3), stride=(1, 1), padding=(1, 1), bias=False, padding_mode=reflect)
            (NoiseLayer1): NoiseInjector()
            (NoiseLayer2): NoiseInjector()
            (NonLinearity1): BiasedActivation()
            (NonLinearity2): BiasedActivation()
          )
        )
        (ToFeatures): Conv2d(256, 512, kernel_size=(1, 1), stride=(1, 1), bias=False)
      )
      (1): GeneratorStage(
        (MainBlocks): ModuleList(
          (0): GeneratorBlock(
            (LinearLayer1): Conv2d(256, 64, kernel_size=(3, 3), stride=(1, 1), padding=(1, 1), bias=False, padding_mode=reflect)
            (LinearLayer2): Conv2d(64, 256, kernel_size=(3, 3), stride=(1, 1), padding=(1, 1), bias=False, padding_mode=reflect)
            (NoiseLayer1): NoiseInjector()
            (NoiseLayer2): NoiseInjector()
            (NonLinearity1): BiasedActivation()
            (NonLinearity2): BiasedActivation()
          )
          (1): GeneratorBlock(
            (LinearLayer1): Conv2d(256, 64, kernel_size=(3, 3), stride=(1, 1), padding=(1, 1), bias=False, padding_mode=reflect)
            (LinearLayer2): Conv2d(64, 256, kernel_size=(3, 3), stride=(1, 1), padding=(1, 1), bias=False, padding_mode=reflect)
            (NoiseLayer1): NoiseInjector()
            (NoiseLayer2): NoiseInjector()
            (NonLinearity1): BiasedActivation()
            (NonLinearity2): BiasedActivation()
          )
          (2): GeneratorBlock(
            (LinearLayer1): Conv2d(256, 64, kernel_size=(3, 3), stride=(1, 1), padding=(1, 1), bias=False, padding_mode=reflect)
            (LinearLayer2): Conv2d(64, 256, kernel_size=(3, 3), stride=(1, 1), padding=(1, 1), bias=False, padding_mode=reflect)
            (NoiseLayer1): NoiseInjector()
            (NoiseLayer2): NoiseInjector()
            (NonLinearity1): BiasedActivation()
            (NonLinearity2): BiasedActivation()
          )
          (3): GeneratorBlock(
            (LinearLayer1): Conv2d(256, 64, kernel_size=(3, 3), stride=(1, 1), padding=(1, 1), bias=False, padding_mode=reflect)
            (LinearLayer2): Conv2d(64, 256, kernel_size=(3, 3), stride=(1, 1), padding=(1, 1), bias=False, padding_mode=reflect)
            (NoiseLayer1): NoiseInjector()
            (NoiseLayer2): NoiseInjector()
            (NonLinearity1): BiasedActivation()
            (NonLinearity2): BiasedActivation()
          )
          (4): GeneratorBlock(
            (LinearLayer1): Conv2d(256, 64, kernel_size=(3, 3), stride=(1, 1), padding=(1, 1), bias=False, padding_mode=reflect)
            (LinearLayer2): Conv2d(64, 256, kernel_size=(3, 3), stride=(1, 1), padding=(1, 1), bias=False, padding_mode=reflect)
            (NoiseLayer1): NoiseInjector()
            (NoiseLayer2): NoiseInjector()
            (NonLinearity1): BiasedActivation()
            (NonLinearity2): BiasedActivation()
          )
          (5): GeneratorBlock(
            (LinearLayer1): Conv2d(256, 64, kernel_size=(3, 3), stride=(1, 1), padding=(1, 1), bias=False, padding_mode=reflect)
            (LinearLayer2): Conv2d(64, 256, kernel_size=(3, 3), stride=(1, 1), padding=(1, 1), bias=False, padding_mode=reflect)
            (NoiseLayer1): NoiseInjector()
            (NoiseLayer2): NoiseInjector()
            (NonLinearity1): BiasedActivation()
            (NonLinearity2): BiasedActivation()
          )
          (6): GeneratorBlock(
            (LinearLayer1): Conv2d(256, 64, kernel_size=(3, 3), stride=(1, 1), padding=(1, 1), bias=False, padding_mode=reflect)
            (LinearLayer2): Conv2d(64, 256, kernel_size=(3, 3), stride=(1, 1), padding=(1, 1), bias=False, padding_mode=reflect)
            (NoiseLayer1): NoiseInjector()
            (NoiseLayer2): NoiseInjector()
            (NonLinearity1): BiasedActivation()
            (NonLinearity2): BiasedActivation()
          )
          (7): GeneratorBlock(
            (LinearLayer1): Conv2d(256, 64, kernel_size=(3, 3), stride=(1, 1), padding=(1, 1), bias=False, padding_mode=reflect)
            (LinearLayer2): Conv2d(64, 256, kernel_size=(3, 3), stride=(1, 1), padding=(1, 1), bias=False, padding_mode=reflect)
            (NoiseLayer1): NoiseInjector()
            (NoiseLayer2): NoiseInjector()
            (NonLinearity1): BiasedActivation()
            (NonLinearity2): BiasedActivation()
          )
          (8): GeneratorBlock(
            (LinearLayer1): Conv2d(256, 64, kernel_size=(3, 3), stride=(1, 1), padding=(1, 1), bias=False, padding_mode=reflect)
            (LinearLayer2): Conv2d(64, 256, kernel_size=(3, 3), stride=(1, 1), padding=(1, 1), bias=False, padding_mode=reflect)
            (NoiseLayer1): NoiseInjector()
            (NoiseLayer2): NoiseInjector()
            (NonLinearity1): BiasedActivation()
            (NonLinearity2): BiasedActivation()
          )
          (9): GeneratorBlock(
            (LinearLayer1): Conv2d(256, 64, kernel_size=(3, 3), stride=(1, 1), padding=(1, 1), bias=False, padding_mode=reflect)
            (LinearLayer2): Conv2d(64, 256, kernel_size=(3, 3), stride=(1, 1), padding=(1, 1), bias=False, padding_mode=reflect)
            (NoiseLayer1): NoiseInjector()
            (NoiseLayer2): NoiseInjector()
            (NonLinearity1): BiasedActivation()
            (NonLinearity2): BiasedActivation()
          )
          (10): GeneratorBlock(
            (LinearLayer1): Conv2d(256, 64, kernel_size=(3, 3), stride=(1, 1), padding=(1, 1), bias=False, padding_mode=reflect)
            (LinearLayer2): Conv2d(64, 256, kernel_size=(3, 3), stride=(1, 1), padding=(1, 1), bias=False, padding_mode=reflect)
            (NoiseLayer1): NoiseInjector()
            (NoiseLayer2): NoiseInjector()
            (NonLinearity1): BiasedActivation()
            (NonLinearity2): BiasedActivation()
          )
          (11): GeneratorBlock(
            (LinearLayer1): Conv2d(256, 64, kernel_size=(3, 3), stride=(1, 1), padding=(1, 1), bias=False, padding_mode=reflect)
            (LinearLayer2): Conv2d(64, 256, kernel_size=(3, 3), stride=(1, 1), padding=(1, 1), bias=False, padding_mode=reflect)
            (NoiseLayer1): NoiseInjector()
            (NoiseLayer2): NoiseInjector()
            (NonLinearity1): BiasedActivation()
            (NonLinearity2): BiasedActivation()
          )
          (12): GeneratorBlock(
            (LinearLayer1): Conv2d(256, 64, kernel_size=(3, 3), stride=(1, 1), padding=(1, 1), bias=False, padding_mode=reflect)
            (LinearLayer2): Conv2d(64, 256, kernel_size=(3, 3), stride=(1, 1), padding=(1, 1), bias=False, padding_mode=reflect)
            (NoiseLayer1): NoiseInjector()
            (NoiseLayer2): NoiseInjector()
            (NonLinearity1): BiasedActivation()
            (NonLinearity2): BiasedActivation()
          )
          (13): GeneratorBlock(
            (LinearLayer1): Conv2d(256, 64, kernel_size=(3, 3), stride=(1, 1), padding=(1, 1), bias=False, padding_mode=reflect)
            (LinearLayer2): Conv2d(64, 256, kernel_size=(3, 3), stride=(1, 1), padding=(1, 1), bias=False, padding_mode=reflect)
            (NoiseLayer1): NoiseInjector()
            (NoiseLayer2): NoiseInjector()
            (NonLinearity1): BiasedActivation()
            (NonLinearity2): BiasedActivation()
          )
          (14): GeneratorBlock(
            (LinearLayer1): Conv2d(256, 64, kernel_size=(3, 3), stride=(1, 1), padding=(1, 1), bias=False, padding_mode=reflect)
            (LinearLayer2): Conv2d(64, 256, kernel_size=(3, 3), stride=(1, 1), padding=(1, 1), bias=False, padding_mode=reflect)
            (NoiseLayer1): NoiseInjector()
            (NoiseLayer2): NoiseInjector()
            (NonLinearity1): BiasedActivation()
            (NonLinearity2): BiasedActivation()
          )
          (15): GeneratorBlock(
            (LinearLayer1): Conv2d(256, 64, kernel_size=(3, 3), stride=(1, 1), padding=(1, 1), bias=False, padding_mode=reflect)
            (LinearLayer2): Conv2d(64, 256, kernel_size=(3, 3), stride=(1, 1), padding=(1, 1), bias=False, padding_mode=reflect)
            (NoiseLayer1): NoiseInjector()
            (NoiseLayer2): NoiseInjector()
            (NonLinearity1): BiasedActivation()
            (NonLinearity2): BiasedActivation()
          )
        )
        (ToFeatures): Conv2d(256, 512, kernel_size=(1, 1), stride=(1, 1), bias=False)
      )
      (2): GeneratorStage(
        (MainBlocks): ModuleList(
          (0): GeneratorBlock(
            (LinearLayer1): Conv2d(256, 64, kernel_size=(3, 3), stride=(1, 1), padding=(1, 1), bias=False, padding_mode=reflect)
            (LinearLayer2): Conv2d(64, 256, kernel_size=(3, 3), stride=(1, 1), padding=(1, 1), bias=False, padding_mode=reflect)
            (NoiseLayer1): NoiseInjector()
            (NoiseLayer2): NoiseInjector()
            (NonLinearity1): BiasedActivation()
            (NonLinearity2): BiasedActivation()
          )
          (1): GeneratorBlock(
            (LinearLayer1): Conv2d(256, 64, kernel_size=(3, 3), stride=(1, 1), padding=(1, 1), bias=False, padding_mode=reflect)
            (LinearLayer2): Conv2d(64, 256, kernel_size=(3, 3), stride=(1, 1), padding=(1, 1), bias=False, padding_mode=reflect)
            (NoiseLayer1): NoiseInjector()
            (NoiseLayer2): NoiseInjector()
            (NonLinearity1): BiasedActivation()
            (NonLinearity2): BiasedActivation()
          )
          (2): GeneratorBlock(
            (LinearLayer1): Conv2d(256, 64, kernel_size=(3, 3), stride=(1, 1), padding=(1, 1), bias=False, padding_mode=reflect)
            (LinearLayer2): Conv2d(64, 256, kernel_size=(3, 3), stride=(1, 1), padding=(1, 1), bias=False, padding_mode=reflect)
            (NoiseLayer1): NoiseInjector()
            (NoiseLayer2): NoiseInjector()
            (NonLinearity1): BiasedActivation()
            (NonLinearity2): BiasedActivation()
          )
          (3): GeneratorBlock(
            (LinearLayer1): Conv2d(256, 64, kernel_size=(3, 3), stride=(1, 1), padding=(1, 1), bias=False, padding_mode=reflect)
            (LinearLayer2): Conv2d(64, 256, kernel_size=(3, 3), stride=(1, 1), padding=(1, 1), bias=False, padding_mode=reflect)
            (NoiseLayer1): NoiseInjector()
            (NoiseLayer2): NoiseInjector()
            (NonLinearity1): BiasedActivation()
            (NonLinearity2): BiasedActivation()
          )
          (4): GeneratorBlock(
            (LinearLayer1): Conv2d(256, 64, kernel_size=(3, 3), stride=(1, 1), padding=(1, 1), bias=False, padding_mode=reflect)
            (LinearLayer2): Conv2d(64, 256, kernel_size=(3, 3), stride=(1, 1), padding=(1, 1), bias=False, padding_mode=reflect)
            (NoiseLayer1): NoiseInjector()
            (NoiseLayer2): NoiseInjector()
            (NonLinearity1): BiasedActivation()
            (NonLinearity2): BiasedActivation()
          )
          (5): GeneratorBlock(
            (LinearLayer1): Conv2d(256, 64, kernel_size=(3, 3), stride=(1, 1), padding=(1, 1), bias=False, padding_mode=reflect)
            (LinearLayer2): Conv2d(64, 256, kernel_size=(3, 3), stride=(1, 1), padding=(1, 1), bias=False, padding_mode=reflect)
            (NoiseLayer1): NoiseInjector()
            (NoiseLayer2): NoiseInjector()
            (NonLinearity1): BiasedActivation()
            (NonLinearity2): BiasedActivation()
          )
          (6): GeneratorBlock(
            (LinearLayer1): Conv2d(256, 64, kernel_size=(3, 3), stride=(1, 1), padding=(1, 1), bias=False, padding_mode=reflect)
            (LinearLayer2): Conv2d(64, 256, kernel_size=(3, 3), stride=(1, 1), padding=(1, 1), bias=False, padding_mode=reflect)
            (NoiseLayer1): NoiseInjector()
            (NoiseLayer2): NoiseInjector()
            (NonLinearity1): BiasedActivation()
            (NonLinearity2): BiasedActivation()
          )
          (7): GeneratorBlock(
            (LinearLayer1): Conv2d(256, 64, kernel_size=(3, 3), stride=(1, 1), padding=(1, 1), bias=False, padding_mode=reflect)
            (LinearLayer2): Conv2d(64, 256, kernel_size=(3, 3), stride=(1, 1), padding=(1, 1), bias=False, padding_mode=reflect)
            (NoiseLayer1): NoiseInjector()
            (NoiseLayer2): NoiseInjector()
            (NonLinearity1): BiasedActivation()
            (NonLinearity2): BiasedActivation()
          )
          (8): GeneratorBlock(
            (LinearLayer1): Conv2d(256, 64, kernel_size=(3, 3), stride=(1, 1), padding=(1, 1), bias=False, padding_mode=reflect)
            (LinearLayer2): Conv2d(64, 256, kernel_size=(3, 3), stride=(1, 1), padding=(1, 1), bias=False, padding_mode=reflect)
            (NoiseLayer1): NoiseInjector()
            (NoiseLayer2): NoiseInjector()
            (NonLinearity1): BiasedActivation()
            (NonLinearity2): BiasedActivation()
          )
          (9): GeneratorBlock(
            (LinearLayer1): Conv2d(256, 64, kernel_size=(3, 3), stride=(1, 1), padding=(1, 1), bias=False, padding_mode=reflect)
            (LinearLayer2): Conv2d(64, 256, kernel_size=(3, 3), stride=(1, 1), padding=(1, 1), bias=False, padding_mode=reflect)
            (NoiseLayer1): NoiseInjector()
            (NoiseLayer2): NoiseInjector()
            (NonLinearity1): BiasedActivation()
            (NonLinearity2): BiasedActivation()
          )
          (10): GeneratorBlock(
            (LinearLayer1): Conv2d(256, 64, kernel_size=(3, 3), stride=(1, 1), padding=(1, 1), bias=False, padding_mode=reflect)
            (LinearLayer2): Conv2d(64, 256, kernel_size=(3, 3), stride=(1, 1), padding=(1, 1), bias=False, padding_mode=reflect)
            (NoiseLayer1): NoiseInjector()
            (NoiseLayer2): NoiseInjector()
            (NonLinearity1): BiasedActivation()
            (NonLinearity2): BiasedActivation()
          )
          (11): GeneratorBlock(
            (LinearLayer1): Conv2d(256, 64, kernel_size=(3, 3), stride=(1, 1), padding=(1, 1), bias=False, padding_mode=reflect)
            (LinearLayer2): Conv2d(64, 256, kernel_size=(3, 3), stride=(1, 1), padding=(1, 1), bias=False, padding_mode=reflect)
            (NoiseLayer1): NoiseInjector()
            (NoiseLayer2): NoiseInjector()
            (NonLinearity1): BiasedActivation()
            (NonLinearity2): BiasedActivation()
          )
          (12): GeneratorBlock(
            (LinearLayer1): Conv2d(256, 64, kernel_size=(3, 3), stride=(1, 1), padding=(1, 1), bias=False, padding_mode=reflect)
            (LinearLayer2): Conv2d(64, 256, kernel_size=(3, 3), stride=(1, 1), padding=(1, 1), bias=False, padding_mode=reflect)
            (NoiseLayer1): NoiseInjector()
            (NoiseLayer2): NoiseInjector()
            (NonLinearity1): BiasedActivation()
            (NonLinearity2): BiasedActivation()
          )
          (13): GeneratorBlock(
            (LinearLayer1): Conv2d(256, 64, kernel_size=(3, 3), stride=(1, 1), padding=(1, 1), bias=False, padding_mode=reflect)
            (LinearLayer2): Conv2d(64, 256, kernel_size=(3, 3), stride=(1, 1), padding=(1, 1), bias=False, padding_mode=reflect)
            (NoiseLayer1): NoiseInjector()
            (NoiseLayer2): NoiseInjector()
            (NonLinearity1): BiasedActivation()
            (NonLinearity2): BiasedActivation()
          )
          (14): GeneratorBlock(
            (LinearLayer1): Conv2d(256, 64, kernel_size=(3, 3), stride=(1, 1), padding=(1, 1), bias=False, padding_mode=reflect)
            (LinearLayer2): Conv2d(64, 256, kernel_size=(3, 3), stride=(1, 1), padding=(1, 1), bias=False, padding_mode=reflect)
            (NoiseLayer1): NoiseInjector()
            (NoiseLayer2): NoiseInjector()
            (NonLinearity1): BiasedActivation()
            (NonLinearity2): BiasedActivation()
          )
          (15): GeneratorBlock(
            (LinearLayer1): Conv2d(256, 64, kernel_size=(3, 3), stride=(1, 1), padding=(1, 1), bias=False, padding_mode=reflect)
            (LinearLayer2): Conv2d(64, 256, kernel_size=(3, 3), stride=(1, 1), padding=(1, 1), bias=False, padding_mode=reflect)
            (NoiseLayer1): NoiseInjector()
            (NoiseLayer2): NoiseInjector()
            (NonLinearity1): BiasedActivation()
            (NonLinearity2): BiasedActivation()
          )
        )
        (ToFeatures): Conv2d(256, 512, kernel_size=(1, 1), stride=(1, 1), bias=False)
      )
      (3): GeneratorStage(
        (MainBlocks): ModuleList(
          (0): GeneratorBlock(
            (LinearLayer1): Conv2d(256, 64, kernel_size=(3, 3), stride=(1, 1), padding=(1, 1), bias=False, padding_mode=reflect)
            (LinearLayer2): Conv2d(64, 256, kernel_size=(3, 3), stride=(1, 1), padding=(1, 1), bias=False, padding_mode=reflect)
            (NoiseLayer1): NoiseInjector()
            (NoiseLayer2): NoiseInjector()
            (NonLinearity1): BiasedActivation()
            (NonLinearity2): BiasedActivation()
          )
          (1): GeneratorBlock(
            (LinearLayer1): Conv2d(256, 64, kernel_size=(3, 3), stride=(1, 1), padding=(1, 1), bias=False, padding_mode=reflect)
            (LinearLayer2): Conv2d(64, 256, kernel_size=(3, 3), stride=(1, 1), padding=(1, 1), bias=False, padding_mode=reflect)
            (NoiseLayer1): NoiseInjector()
            (NoiseLayer2): NoiseInjector()
            (NonLinearity1): BiasedActivation()
            (NonLinearity2): BiasedActivation()
          )
          (2): GeneratorBlock(
            (LinearLayer1): Conv2d(256, 64, kernel_size=(3, 3), stride=(1, 1), padding=(1, 1), bias=False, padding_mode=reflect)
            (LinearLayer2): Conv2d(64, 256, kernel_size=(3, 3), stride=(1, 1), padding=(1, 1), bias=False, padding_mode=reflect)
            (NoiseLayer1): NoiseInjector()
            (NoiseLayer2): NoiseInjector()
            (NonLinearity1): BiasedActivation()
            (NonLinearity2): BiasedActivation()
          )
          (3): GeneratorBlock(
            (LinearLayer1): Conv2d(256, 64, kernel_size=(3, 3), stride=(1, 1), padding=(1, 1), bias=False, padding_mode=reflect)
            (LinearLayer2): Conv2d(64, 256, kernel_size=(3, 3), stride=(1, 1), padding=(1, 1), bias=False, padding_mode=reflect)
            (NoiseLayer1): NoiseInjector()
            (NoiseLayer2): NoiseInjector()
            (NonLinearity1): BiasedActivation()
            (NonLinearity2): BiasedActivation()
          )
          (4): GeneratorBlock(
            (LinearLayer1): Conv2d(256, 64, kernel_size=(3, 3), stride=(1, 1), padding=(1, 1), bias=False, padding_mode=reflect)
            (LinearLayer2): Conv2d(64, 256, kernel_size=(3, 3), stride=(1, 1), padding=(1, 1), bias=False, padding_mode=reflect)
            (NoiseLayer1): NoiseInjector()
            (NoiseLayer2): NoiseInjector()
            (NonLinearity1): BiasedActivation()
            (NonLinearity2): BiasedActivation()
          )
          (5): GeneratorBlock(
            (LinearLayer1): Conv2d(256, 64, kernel_size=(3, 3), stride=(1, 1), padding=(1, 1), bias=False, padding_mode=reflect)
            (LinearLayer2): Conv2d(64, 256, kernel_size=(3, 3), stride=(1, 1), padding=(1, 1), bias=False, padding_mode=reflect)
            (NoiseLayer1): NoiseInjector()
            (NoiseLayer2): NoiseInjector()
            (NonLinearity1): BiasedActivation()
            (NonLinearity2): BiasedActivation()
          )
          (6): GeneratorBlock(
            (LinearLayer1): Conv2d(256, 64, kernel_size=(3, 3), stride=(1, 1), padding=(1, 1), bias=False, padding_mode=reflect)
            (LinearLayer2): Conv2d(64, 256, kernel_size=(3, 3), stride=(1, 1), padding=(1, 1), bias=False, padding_mode=reflect)
            (NoiseLayer1): NoiseInjector()
            (NoiseLayer2): NoiseInjector()
            (NonLinearity1): BiasedActivation()
            (NonLinearity2): BiasedActivation()
          )
          (7): GeneratorBlock(
            (LinearLayer1): Conv2d(256, 64, kernel_size=(3, 3), stride=(1, 1), padding=(1, 1), bias=False, padding_mode=reflect)
            (LinearLayer2): Conv2d(64, 256, kernel_size=(3, 3), stride=(1, 1), padding=(1, 1), bias=False, padding_mode=reflect)
            (NoiseLayer1): NoiseInjector()
            (NoiseLayer2): NoiseInjector()
            (NonLinearity1): BiasedActivation()
            (NonLinearity2): BiasedActivation()
          )
          (8): GeneratorBlock(
            (LinearLayer1): Conv2d(256, 64, kernel_size=(3, 3), stride=(1, 1), padding=(1, 1), bias=False, padding_mode=reflect)
            (LinearLayer2): Conv2d(64, 256, kernel_size=(3, 3), stride=(1, 1), padding=(1, 1), bias=False, padding_mode=reflect)
            (NoiseLayer1): NoiseInjector()
            (NoiseLayer2): NoiseInjector()
            (NonLinearity1): BiasedActivation()
            (NonLinearity2): BiasedActivation()
          )
          (9): GeneratorBlock(
            (LinearLayer1): Conv2d(256, 64, kernel_size=(3, 3), stride=(1, 1), padding=(1, 1), bias=False, padding_mode=reflect)
            (LinearLayer2): Conv2d(64, 256, kernel_size=(3, 3), stride=(1, 1), padding=(1, 1), bias=False, padding_mode=reflect)
            (NoiseLayer1): NoiseInjector()
            (NoiseLayer2): NoiseInjector()
            (NonLinearity1): BiasedActivation()
            (NonLinearity2): BiasedActivation()
          )
          (10): GeneratorBlock(
            (LinearLayer1): Conv2d(256, 64, kernel_size=(3, 3), stride=(1, 1), padding=(1, 1), bias=False, padding_mode=reflect)
            (LinearLayer2): Conv2d(64, 256, kernel_size=(3, 3), stride=(1, 1), padding=(1, 1), bias=False, padding_mode=reflect)
            (NoiseLayer1): NoiseInjector()
            (NoiseLayer2): NoiseInjector()
            (NonLinearity1): BiasedActivation()
            (NonLinearity2): BiasedActivation()
          )
          (11): GeneratorBlock(
            (LinearLayer1): Conv2d(256, 64, kernel_size=(3, 3), stride=(1, 1), padding=(1, 1), bias=False, padding_mode=reflect)
            (LinearLayer2): Conv2d(64, 256, kernel_size=(3, 3), stride=(1, 1), padding=(1, 1), bias=False, padding_mode=reflect)
            (NoiseLayer1): NoiseInjector()
            (NoiseLayer2): NoiseInjector()
            (NonLinearity1): BiasedActivation()
            (NonLinearity2): BiasedActivation()
          )
          (12): GeneratorBlock(
            (LinearLayer1): Conv2d(256, 64, kernel_size=(3, 3), stride=(1, 1), padding=(1, 1), bias=False, padding_mode=reflect)
            (LinearLayer2): Conv2d(64, 256, kernel_size=(3, 3), stride=(1, 1), padding=(1, 1), bias=False, padding_mode=reflect)
            (NoiseLayer1): NoiseInjector()
            (NoiseLayer2): NoiseInjector()
            (NonLinearity1): BiasedActivation()
            (NonLinearity2): BiasedActivation()
          )
          (13): GeneratorBlock(
            (LinearLayer1): Conv2d(256, 64, kernel_size=(3, 3), stride=(1, 1), padding=(1, 1), bias=False, padding_mode=reflect)
            (LinearLayer2): Conv2d(64, 256, kernel_size=(3, 3), stride=(1, 1), padding=(1, 1), bias=False, padding_mode=reflect)
            (NoiseLayer1): NoiseInjector()
            (NoiseLayer2): NoiseInjector()
            (NonLinearity1): BiasedActivation()
            (NonLinearity2): BiasedActivation()
          )
          (14): GeneratorBlock(
            (LinearLayer1): Conv2d(256, 64, kernel_size=(3, 3), stride=(1, 1), padding=(1, 1), bias=False, padding_mode=reflect)
            (LinearLayer2): Conv2d(64, 256, kernel_size=(3, 3), stride=(1, 1), padding=(1, 1), bias=False, padding_mode=reflect)
            (NoiseLayer1): NoiseInjector()
            (NoiseLayer2): NoiseInjector()
            (NonLinearity1): BiasedActivation()
            (NonLinearity2): BiasedActivation()
          )
          (15): GeneratorBlock(
            (LinearLayer1): Conv2d(256, 64, kernel_size=(3, 3), stride=(1, 1), padding=(1, 1), bias=False, padding_mode=reflect)
            (LinearLayer2): Conv2d(64, 256, kernel_size=(3, 3), stride=(1, 1), padding=(1, 1), bias=False, padding_mode=reflect)
            (NoiseLayer1): NoiseInjector()
            (NoiseLayer2): NoiseInjector()
            (NonLinearity1): BiasedActivation()
            (NonLinearity2): BiasedActivation()
          )
        )
        (ToFeatures): Conv2d(256, 512, kernel_size=(1, 1), stride=(1, 1), bias=False)
      )
    )
    (FeatureNoiseLayer): NoiseInjector()
    (FeatureNonLinearity): BiasedActivation()
    (Upsamplers): ModuleList(
      (0): GeneratorUpsampleBlock(
        (LinearLayer1): Conv2d(512, 128, kernel_size=(3, 3), stride=(1, 1), padding=(1, 1), bias=False, padding_mode=reflect)
        (LinearLayer2): Conv2d(128, 512, kernel_size=(1, 1), stride=(1, 1), bias=False)
        (LinearLayer3): Conv2d(128, 256, kernel_size=(3, 3), stride=(1, 1), padding=(1, 1), bias=False, padding_mode=reflect)
        (NoiseLayer1): NoiseInjector()
        (NoiseLayer2): NoiseInjector()
        (NoiseLayer3): NoiseInjector()
        (NonLinearity1): BiasedActivation()
        (NonLinearity2): BiasedActivation()
        (NonLinearity3): BiasedActivation()
        (Resampler): Upsampler()
        (ShortcutLayer): Conv2d(512, 256, kernel_size=(1, 1), stride=(1, 1), bias=False)
      )
      (1): GeneratorUpsampleBlock(
        (LinearLayer1): Conv2d(256, 64, kernel_size=(3, 3), stride=(1, 1), padding=(1, 1), bias=False, padding_mode=reflect)
        (LinearLayer2): Conv2d(64, 256, kernel_size=(1, 1), stride=(1, 1), bias=False)
        (LinearLayer3): Conv2d(64, 128, kernel_size=(3, 3), stride=(1, 1), padding=(1, 1), bias=False, padding_mode=reflect)
        (NoiseLayer1): NoiseInjector()
        (NoiseLayer2): NoiseInjector()
        (NoiseLayer3): NoiseInjector()
        (NonLinearity1): BiasedActivation()
        (NonLinearity2): BiasedActivation()
        (NonLinearity3): BiasedActivation()
        (Resampler): Upsampler()
        (ShortcutLayer): Conv2d(256, 128, kernel_size=(1, 1), stride=(1, 1), bias=False)
      )
    )
    (ToRGB): ModuleList(
      (0): Conv2d(256, 3, kernel_size=(1, 1), stride=(1, 1), bias=False)
      (1): Conv2d(128, 3, kernel_size=(1, 1), stride=(1, 1), bias=False)
    )
  )
)
CS143Generator(
  (sub_mean): MeanShift(3, 3, kernel_size=(1, 1), stride=(1, 1))
  (add_mean): MeanShift(3, 3, kernel_size=(1, 1), stride=(1, 1))
  (Main): Generator(
    (Stem): GeneratorPrologLayer(
      (LinearLayer): Conv2d(3, 256, kernel_size=(3, 3), stride=(1, 1), padding=(1, 1), bias=False, padding_mode=reflect)
      (NoiseLayer): NoiseInjector()
      (NonLinearity): BiasedActivation()
      (ToFeatures): Conv2d(256, 512, kernel_size=(1, 1), stride=(1, 1), bias=False)
    )
    (Stages): ModuleList(
      (0): GeneratorStage(
        (MainBlocks): ModuleList(
          (0): GeneratorBlock(
            (LinearLayer1): Conv2d(256, 64, kernel_size=(3, 3), stride=(1, 1), padding=(1, 1), bias=False, padding_mode=reflect)
            (LinearLayer2): Conv2d(64, 256, kernel_size=(3, 3), stride=(1, 1), padding=(1, 1), bias=False, padding_mode=reflect)
            (NoiseLayer1): NoiseInjector()
            (NoiseLayer2): NoiseInjector()
            (NonLinearity1): BiasedActivation()
            (NonLinearity2): BiasedActivation()
          )
          (1): GeneratorBlock(
            (LinearLayer1): Conv2d(256, 64, kernel_size=(3, 3), stride=(1, 1), padding=(1, 1), bias=False, padding_mode=reflect)
            (LinearLayer2): Conv2d(64, 256, kernel_size=(3, 3), stride=(1, 1), padding=(1, 1), bias=False, padding_mode=reflect)
            (NoiseLayer1): NoiseInjector()
            (NoiseLayer2): NoiseInjector()
            (NonLinearity1): BiasedActivation()
            (NonLinearity2): BiasedActivation()
          )
          (2): GeneratorBlock(
            (LinearLayer1): Conv2d(256, 64, kernel_size=(3, 3), stride=(1, 1), padding=(1, 1), bias=False, padding_mode=reflect)
            (LinearLayer2): Conv2d(64, 256, kernel_size=(3, 3), stride=(1, 1), padding=(1, 1), bias=False, padding_mode=reflect)
            (NoiseLayer1): NoiseInjector()
            (NoiseLayer2): NoiseInjector()
            (NonLinearity1): BiasedActivation()
            (NonLinearity2): BiasedActivation()
          )
          (3): GeneratorBlock(
            (LinearLayer1): Conv2d(256, 64, kernel_size=(3, 3), stride=(1, 1), padding=(1, 1), bias=False, padding_mode=reflect)
            (LinearLayer2): Conv2d(64, 256, kernel_size=(3, 3), stride=(1, 1), padding=(1, 1), bias=False, padding_mode=reflect)
            (NoiseLayer1): NoiseInjector()
            (NoiseLayer2): NoiseInjector()
            (NonLinearity1): BiasedActivation()
            (NonLinearity2): BiasedActivation()
          )
          (4): GeneratorBlock(
            (LinearLayer1): Conv2d(256, 64, kernel_size=(3, 3), stride=(1, 1), padding=(1, 1), bias=False, padding_mode=reflect)
            (LinearLayer2): Conv2d(64, 256, kernel_size=(3, 3), stride=(1, 1), padding=(1, 1), bias=False, padding_mode=reflect)
            (NoiseLayer1): NoiseInjector()
            (NoiseLayer2): NoiseInjector()
            (NonLinearity1): BiasedActivation()
            (NonLinearity2): BiasedActivation()
          )
          (5): GeneratorBlock(
            (LinearLayer1): Conv2d(256, 64, kernel_size=(3, 3), stride=(1, 1), padding=(1, 1), bias=False, padding_mode=reflect)
            (LinearLayer2): Conv2d(64, 256, kernel_size=(3, 3), stride=(1, 1), padding=(1, 1), bias=False, padding_mode=reflect)
            (NoiseLayer1): NoiseInjector()
            (NoiseLayer2): NoiseInjector()
            (NonLinearity1): BiasedActivation()
            (NonLinearity2): BiasedActivation()
          )
          (6): GeneratorBlock(
            (LinearLayer1): Conv2d(256, 64, kernel_size=(3, 3), stride=(1, 1), padding=(1, 1), bias=False, padding_mode=reflect)
            (LinearLayer2): Conv2d(64, 256, kernel_size=(3, 3), stride=(1, 1), padding=(1, 1), bias=False, padding_mode=reflect)
            (NoiseLayer1): NoiseInjector()
            (NoiseLayer2): NoiseInjector()
            (NonLinearity1): BiasedActivation()
            (NonLinearity2): BiasedActivation()
          )
          (7): GeneratorBlock(
            (LinearLayer1): Conv2d(256, 64, kernel_size=(3, 3), stride=(1, 1), padding=(1, 1), bias=False, padding_mode=reflect)
            (LinearLayer2): Conv2d(64, 256, kernel_size=(3, 3), stride=(1, 1), padding=(1, 1), bias=False, padding_mode=reflect)
            (NoiseLayer1): NoiseInjector()
            (NoiseLayer2): NoiseInjector()
            (NonLinearity1): BiasedActivation()
            (NonLinearity2): BiasedActivation()
          )
          (8): GeneratorBlock(
            (LinearLayer1): Conv2d(256, 64, kernel_size=(3, 3), stride=(1, 1), padding=(1, 1), bias=False, padding_mode=reflect)
            (LinearLayer2): Conv2d(64, 256, kernel_size=(3, 3), stride=(1, 1), padding=(1, 1), bias=False, padding_mode=reflect)
            (NoiseLayer1): NoiseInjector()
            (NoiseLayer2): NoiseInjector()
            (NonLinearity1): BiasedActivation()
            (NonLinearity2): BiasedActivation()
          )
          (9): GeneratorBlock(
            (LinearLayer1): Conv2d(256, 64, kernel_size=(3, 3), stride=(1, 1), padding=(1, 1), bias=False, padding_mode=reflect)
            (LinearLayer2): Conv2d(64, 256, kernel_size=(3, 3), stride=(1, 1), padding=(1, 1), bias=False, padding_mode=reflect)
            (NoiseLayer1): NoiseInjector()
            (NoiseLayer2): NoiseInjector()
            (NonLinearity1): BiasedActivation()
            (NonLinearity2): BiasedActivation()
          )
          (10): GeneratorBlock(
            (LinearLayer1): Conv2d(256, 64, kernel_size=(3, 3), stride=(1, 1), padding=(1, 1), bias=False, padding_mode=reflect)
            (LinearLayer2): Conv2d(64, 256, kernel_size=(3, 3), stride=(1, 1), padding=(1, 1), bias=False, padding_mode=reflect)
            (NoiseLayer1): NoiseInjector()
            (NoiseLayer2): NoiseInjector()
            (NonLinearity1): BiasedActivation()
            (NonLinearity2): BiasedActivation()
          )
          (11): GeneratorBlock(
            (LinearLayer1): Conv2d(256, 64, kernel_size=(3, 3), stride=(1, 1), padding=(1, 1), bias=False, padding_mode=reflect)
            (LinearLayer2): Conv2d(64, 256, kernel_size=(3, 3), stride=(1, 1), padding=(1, 1), bias=False, padding_mode=reflect)
            (NoiseLayer1): NoiseInjector()
            (NoiseLayer2): NoiseInjector()
            (NonLinearity1): BiasedActivation()
            (NonLinearity2): BiasedActivation()
          )
          (12): GeneratorBlock(
            (LinearLayer1): Conv2d(256, 64, kernel_size=(3, 3), stride=(1, 1), padding=(1, 1), bias=False, padding_mode=reflect)
            (LinearLayer2): Conv2d(64, 256, kernel_size=(3, 3), stride=(1, 1), padding=(1, 1), bias=False, padding_mode=reflect)
            (NoiseLayer1): NoiseInjector()
            (NoiseLayer2): NoiseInjector()
            (NonLinearity1): BiasedActivation()
            (NonLinearity2): BiasedActivation()
          )
          (13): GeneratorBlock(
            (LinearLayer1): Conv2d(256, 64, kernel_size=(3, 3), stride=(1, 1), padding=(1, 1), bias=False, padding_mode=reflect)
            (LinearLayer2): Conv2d(64, 256, kernel_size=(3, 3), stride=(1, 1), padding=(1, 1), bias=False, padding_mode=reflect)
            (NoiseLayer1): NoiseInjector()
            (NoiseLayer2): NoiseInjector()
            (NonLinearity1): BiasedActivation()
            (NonLinearity2): BiasedActivation()
          )
          (14): GeneratorBlock(
            (LinearLayer1): Conv2d(256, 64, kernel_size=(3, 3), stride=(1, 1), padding=(1, 1), bias=False, padding_mode=reflect)
            (LinearLayer2): Conv2d(64, 256, kernel_size=(3, 3), stride=(1, 1), padding=(1, 1), bias=False, padding_mode=reflect)
            (NoiseLayer1): NoiseInjector()
            (NoiseLayer2): NoiseInjector()
            (NonLinearity1): BiasedActivation()
            (NonLinearity2): BiasedActivation()
          )
          (15): GeneratorBlock(
            (LinearLayer1): Conv2d(256, 64, kernel_size=(3, 3), stride=(1, 1), padding=(1, 1), bias=False, padding_mode=reflect)
            (LinearLayer2): Conv2d(64, 256, kernel_size=(3, 3), stride=(1, 1), padding=(1, 1), bias=False, padding_mode=reflect)
            (NoiseLayer1): NoiseInjector()
            (NoiseLayer2): NoiseInjector()
            (NonLinearity1): BiasedActivation()
            (NonLinearity2): BiasedActivation()
          )
        )
        (ToFeatures): Conv2d(256, 512, kernel_size=(1, 1), stride=(1, 1), bias=False)
      )
      (1): GeneratorStage(
        (MainBlocks): ModuleList(
          (0): GeneratorBlock(
            (LinearLayer1): Conv2d(256, 64, kernel_size=(3, 3), stride=(1, 1), padding=(1, 1), bias=False, padding_mode=reflect)
            (LinearLayer2): Conv2d(64, 256, kernel_size=(3, 3), stride=(1, 1), padding=(1, 1), bias=False, padding_mode=reflect)
            (NoiseLayer1): NoiseInjector()
            (NoiseLayer2): NoiseInjector()
            (NonLinearity1): BiasedActivation()
            (NonLinearity2): BiasedActivation()
          )
          (1): GeneratorBlock(
            (LinearLayer1): Conv2d(256, 64, kernel_size=(3, 3), stride=(1, 1), padding=(1, 1), bias=False, padding_mode=reflect)
            (LinearLayer2): Conv2d(64, 256, kernel_size=(3, 3), stride=(1, 1), padding=(1, 1), bias=False, padding_mode=reflect)
            (NoiseLayer1): NoiseInjector()
            (NoiseLayer2): NoiseInjector()
            (NonLinearity1): BiasedActivation()
            (NonLinearity2): BiasedActivation()
          )
          (2): GeneratorBlock(
            (LinearLayer1): Conv2d(256, 64, kernel_size=(3, 3), stride=(1, 1), padding=(1, 1), bias=False, padding_mode=reflect)
            (LinearLayer2): Conv2d(64, 256, kernel_size=(3, 3), stride=(1, 1), padding=(1, 1), bias=False, padding_mode=reflect)
            (NoiseLayer1): NoiseInjector()
            (NoiseLayer2): NoiseInjector()
            (NonLinearity1): BiasedActivation()
            (NonLinearity2): BiasedActivation()
          )
          (3): GeneratorBlock(
            (LinearLayer1): Conv2d(256, 64, kernel_size=(3, 3), stride=(1, 1), padding=(1, 1), bias=False, padding_mode=reflect)
            (LinearLayer2): Conv2d(64, 256, kernel_size=(3, 3), stride=(1, 1), padding=(1, 1), bias=False, padding_mode=reflect)
            (NoiseLayer1): NoiseInjector()
            (NoiseLayer2): NoiseInjector()
            (NonLinearity1): BiasedActivation()
            (NonLinearity2): BiasedActivation()
          )
          (4): GeneratorBlock(
            (LinearLayer1): Conv2d(256, 64, kernel_size=(3, 3), stride=(1, 1), padding=(1, 1), bias=False, padding_mode=reflect)
            (LinearLayer2): Conv2d(64, 256, kernel_size=(3, 3), stride=(1, 1), padding=(1, 1), bias=False, padding_mode=reflect)
            (NoiseLayer1): NoiseInjector()
            (NoiseLayer2): NoiseInjector()
            (NonLinearity1): BiasedActivation()
            (NonLinearity2): BiasedActivation()
          )
          (5): GeneratorBlock(
            (LinearLayer1): Conv2d(256, 64, kernel_size=(3, 3), stride=(1, 1), padding=(1, 1), bias=False, padding_mode=reflect)
            (LinearLayer2): Conv2d(64, 256, kernel_size=(3, 3), stride=(1, 1), padding=(1, 1), bias=False, padding_mode=reflect)
            (NoiseLayer1): NoiseInjector()
            (NoiseLayer2): NoiseInjector()
            (NonLinearity1): BiasedActivation()
            (NonLinearity2): BiasedActivation()
          )
          (6): GeneratorBlock(
            (LinearLayer1): Conv2d(256, 64, kernel_size=(3, 3), stride=(1, 1), padding=(1, 1), bias=False, padding_mode=reflect)
            (LinearLayer2): Conv2d(64, 256, kernel_size=(3, 3), stride=(1, 1), padding=(1, 1), bias=False, padding_mode=reflect)
            (NoiseLayer1): NoiseInjector()
            (NoiseLayer2): NoiseInjector()
            (NonLinearity1): BiasedActivation()
            (NonLinearity2): BiasedActivation()
          )
          (7): GeneratorBlock(
            (LinearLayer1): Conv2d(256, 64, kernel_size=(3, 3), stride=(1, 1), padding=(1, 1), bias=False, padding_mode=reflect)
            (LinearLayer2): Conv2d(64, 256, kernel_size=(3, 3), stride=(1, 1), padding=(1, 1), bias=False, padding_mode=reflect)
            (NoiseLayer1): NoiseInjector()
            (NoiseLayer2): NoiseInjector()
            (NonLinearity1): BiasedActivation()
            (NonLinearity2): BiasedActivation()
          )
          (8): GeneratorBlock(
            (LinearLayer1): Conv2d(256, 64, kernel_size=(3, 3), stride=(1, 1), padding=(1, 1), bias=False, padding_mode=reflect)
            (LinearLayer2): Conv2d(64, 256, kernel_size=(3, 3), stride=(1, 1), padding=(1, 1), bias=False, padding_mode=reflect)
            (NoiseLayer1): NoiseInjector()
            (NoiseLayer2): NoiseInjector()
            (NonLinearity1): BiasedActivation()
            (NonLinearity2): BiasedActivation()
          )
          (9): GeneratorBlock(
            (LinearLayer1): Conv2d(256, 64, kernel_size=(3, 3), stride=(1, 1), padding=(1, 1), bias=False, padding_mode=reflect)
            (LinearLayer2): Conv2d(64, 256, kernel_size=(3, 3), stride=(1, 1), padding=(1, 1), bias=False, padding_mode=reflect)
            (NoiseLayer1): NoiseInjector()
            (NoiseLayer2): NoiseInjector()
            (NonLinearity1): BiasedActivation()
            (NonLinearity2): BiasedActivation()
          )
          (10): GeneratorBlock(
            (LinearLayer1): Conv2d(256, 64, kernel_size=(3, 3), stride=(1, 1), padding=(1, 1), bias=False, padding_mode=reflect)
            (LinearLayer2): Conv2d(64, 256, kernel_size=(3, 3), stride=(1, 1), padding=(1, 1), bias=False, padding_mode=reflect)
            (NoiseLayer1): NoiseInjector()
            (NoiseLayer2): NoiseInjector()
            (NonLinearity1): BiasedActivation()
            (NonLinearity2): BiasedActivation()
          )
          (11): GeneratorBlock(
            (LinearLayer1): Conv2d(256, 64, kernel_size=(3, 3), stride=(1, 1), padding=(1, 1), bias=False, padding_mode=reflect)
            (LinearLayer2): Conv2d(64, 256, kernel_size=(3, 3), stride=(1, 1), padding=(1, 1), bias=False, padding_mode=reflect)
            (NoiseLayer1): NoiseInjector()
            (NoiseLayer2): NoiseInjector()
            (NonLinearity1): BiasedActivation()
            (NonLinearity2): BiasedActivation()
          )
          (12): GeneratorBlock(
            (LinearLayer1): Conv2d(256, 64, kernel_size=(3, 3), stride=(1, 1), padding=(1, 1), bias=False, padding_mode=reflect)
            (LinearLayer2): Conv2d(64, 256, kernel_size=(3, 3), stride=(1, 1), padding=(1, 1), bias=False, padding_mode=reflect)
            (NoiseLayer1): NoiseInjector()
            (NoiseLayer2): NoiseInjector()
            (NonLinearity1): BiasedActivation()
            (NonLinearity2): BiasedActivation()
          )
          (13): GeneratorBlock(
            (LinearLayer1): Conv2d(256, 64, kernel_size=(3, 3), stride=(1, 1), padding=(1, 1), bias=False, padding_mode=reflect)
            (LinearLayer2): Conv2d(64, 256, kernel_size=(3, 3), stride=(1, 1), padding=(1, 1), bias=False, padding_mode=reflect)
            (NoiseLayer1): NoiseInjector()
            (NoiseLayer2): NoiseInjector()
            (NonLinearity1): BiasedActivation()
            (NonLinearity2): BiasedActivation()
          )
          (14): GeneratorBlock(
            (LinearLayer1): Conv2d(256, 64, kernel_size=(3, 3), stride=(1, 1), padding=(1, 1), bias=False, padding_mode=reflect)
            (LinearLayer2): Conv2d(64, 256, kernel_size=(3, 3), stride=(1, 1), padding=(1, 1), bias=False, padding_mode=reflect)
            (NoiseLayer1): NoiseInjector()
            (NoiseLayer2): NoiseInjector()
            (NonLinearity1): BiasedActivation()
            (NonLinearity2): BiasedActivation()
          )
          (15): GeneratorBlock(
            (LinearLayer1): Conv2d(256, 64, kernel_size=(3, 3), stride=(1, 1), padding=(1, 1), bias=False, padding_mode=reflect)
            (LinearLayer2): Conv2d(64, 256, kernel_size=(3, 3), stride=(1, 1), padding=(1, 1), bias=False, padding_mode=reflect)
            (NoiseLayer1): NoiseInjector()
            (NoiseLayer2): NoiseInjector()
            (NonLinearity1): BiasedActivation()
            (NonLinearity2): BiasedActivation()
          )
        )
        (ToFeatures): Conv2d(256, 512, kernel_size=(1, 1), stride=(1, 1), bias=False)
      )
      (2): GeneratorStage(
        (MainBlocks): ModuleList(
          (0): GeneratorBlock(
            (LinearLayer1): Conv2d(256, 64, kernel_size=(3, 3), stride=(1, 1), padding=(1, 1), bias=False, padding_mode=reflect)
            (LinearLayer2): Conv2d(64, 256, kernel_size=(3, 3), stride=(1, 1), padding=(1, 1), bias=False, padding_mode=reflect)
            (NoiseLayer1): NoiseInjector()
            (NoiseLayer2): NoiseInjector()
            (NonLinearity1): BiasedActivation()
            (NonLinearity2): BiasedActivation()
          )
          (1): GeneratorBlock(
            (LinearLayer1): Conv2d(256, 64, kernel_size=(3, 3), stride=(1, 1), padding=(1, 1), bias=False, padding_mode=reflect)
            (LinearLayer2): Conv2d(64, 256, kernel_size=(3, 3), stride=(1, 1), padding=(1, 1), bias=False, padding_mode=reflect)
            (NoiseLayer1): NoiseInjector()
            (NoiseLayer2): NoiseInjector()
            (NonLinearity1): BiasedActivation()
            (NonLinearity2): BiasedActivation()
          )
          (2): GeneratorBlock(
            (LinearLayer1): Conv2d(256, 64, kernel_size=(3, 3), stride=(1, 1), padding=(1, 1), bias=False, padding_mode=reflect)
            (LinearLayer2): Conv2d(64, 256, kernel_size=(3, 3), stride=(1, 1), padding=(1, 1), bias=False, padding_mode=reflect)
            (NoiseLayer1): NoiseInjector()
            (NoiseLayer2): NoiseInjector()
            (NonLinearity1): BiasedActivation()
            (NonLinearity2): BiasedActivation()
          )
          (3): GeneratorBlock(
            (LinearLayer1): Conv2d(256, 64, kernel_size=(3, 3), stride=(1, 1), padding=(1, 1), bias=False, padding_mode=reflect)
            (LinearLayer2): Conv2d(64, 256, kernel_size=(3, 3), stride=(1, 1), padding=(1, 1), bias=False, padding_mode=reflect)
            (NoiseLayer1): NoiseInjector()
            (NoiseLayer2): NoiseInjector()
            (NonLinearity1): BiasedActivation()
            (NonLinearity2): BiasedActivation()
          )
          (4): GeneratorBlock(
            (LinearLayer1): Conv2d(256, 64, kernel_size=(3, 3), stride=(1, 1), padding=(1, 1), bias=False, padding_mode=reflect)
            (LinearLayer2): Conv2d(64, 256, kernel_size=(3, 3), stride=(1, 1), padding=(1, 1), bias=False, padding_mode=reflect)
            (NoiseLayer1): NoiseInjector()
            (NoiseLayer2): NoiseInjector()
            (NonLinearity1): BiasedActivation()
            (NonLinearity2): BiasedActivation()
          )
          (5): GeneratorBlock(
            (LinearLayer1): Conv2d(256, 64, kernel_size=(3, 3), stride=(1, 1), padding=(1, 1), bias=False, padding_mode=reflect)
            (LinearLayer2): Conv2d(64, 256, kernel_size=(3, 3), stride=(1, 1), padding=(1, 1), bias=False, padding_mode=reflect)
            (NoiseLayer1): NoiseInjector()
            (NoiseLayer2): NoiseInjector()
            (NonLinearity1): BiasedActivation()
            (NonLinearity2): BiasedActivation()
          )
          (6): GeneratorBlock(
            (LinearLayer1): Conv2d(256, 64, kernel_size=(3, 3), stride=(1, 1), padding=(1, 1), bias=False, padding_mode=reflect)
            (LinearLayer2): Conv2d(64, 256, kernel_size=(3, 3), stride=(1, 1), padding=(1, 1), bias=False, padding_mode=reflect)
            (NoiseLayer1): NoiseInjector()
            (NoiseLayer2): NoiseInjector()
            (NonLinearity1): BiasedActivation()
            (NonLinearity2): BiasedActivation()
          )
          (7): GeneratorBlock(
            (LinearLayer1): Conv2d(256, 64, kernel_size=(3, 3), stride=(1, 1), padding=(1, 1), bias=False, padding_mode=reflect)
            (LinearLayer2): Conv2d(64, 256, kernel_size=(3, 3), stride=(1, 1), padding=(1, 1), bias=False, padding_mode=reflect)
            (NoiseLayer1): NoiseInjector()
            (NoiseLayer2): NoiseInjector()
            (NonLinearity1): BiasedActivation()
            (NonLinearity2): BiasedActivation()
          )
          (8): GeneratorBlock(
            (LinearLayer1): Conv2d(256, 64, kernel_size=(3, 3), stride=(1, 1), padding=(1, 1), bias=False, padding_mode=reflect)
            (LinearLayer2): Conv2d(64, 256, kernel_size=(3, 3), stride=(1, 1), padding=(1, 1), bias=False, padding_mode=reflect)
            (NoiseLayer1): NoiseInjector()
            (NoiseLayer2): NoiseInjector()
            (NonLinearity1): BiasedActivation()
            (NonLinearity2): BiasedActivation()
          )
          (9): GeneratorBlock(
            (LinearLayer1): Conv2d(256, 64, kernel_size=(3, 3), stride=(1, 1), padding=(1, 1), bias=False, padding_mode=reflect)
            (LinearLayer2): Conv2d(64, 256, kernel_size=(3, 3), stride=(1, 1), padding=(1, 1), bias=False, padding_mode=reflect)
            (NoiseLayer1): NoiseInjector()
            (NoiseLayer2): NoiseInjector()
            (NonLinearity1): BiasedActivation()
            (NonLinearity2): BiasedActivation()
          )
          (10): GeneratorBlock(
            (LinearLayer1): Conv2d(256, 64, kernel_size=(3, 3), stride=(1, 1), padding=(1, 1), bias=False, padding_mode=reflect)
            (LinearLayer2): Conv2d(64, 256, kernel_size=(3, 3), stride=(1, 1), padding=(1, 1), bias=False, padding_mode=reflect)
            (NoiseLayer1): NoiseInjector()
            (NoiseLayer2): NoiseInjector()
            (NonLinearity1): BiasedActivation()
            (NonLinearity2): BiasedActivation()
          )
          (11): GeneratorBlock(
            (LinearLayer1): Conv2d(256, 64, kernel_size=(3, 3), stride=(1, 1), padding=(1, 1), bias=False, padding_mode=reflect)
            (LinearLayer2): Conv2d(64, 256, kernel_size=(3, 3), stride=(1, 1), padding=(1, 1), bias=False, padding_mode=reflect)
            (NoiseLayer1): NoiseInjector()
            (NoiseLayer2): NoiseInjector()
            (NonLinearity1): BiasedActivation()
            (NonLinearity2): BiasedActivation()
          )
          (12): GeneratorBlock(
            (LinearLayer1): Conv2d(256, 64, kernel_size=(3, 3), stride=(1, 1), padding=(1, 1), bias=False, padding_mode=reflect)
            (LinearLayer2): Conv2d(64, 256, kernel_size=(3, 3), stride=(1, 1), padding=(1, 1), bias=False, padding_mode=reflect)
            (NoiseLayer1): NoiseInjector()
            (NoiseLayer2): NoiseInjector()
            (NonLinearity1): BiasedActivation()
            (NonLinearity2): BiasedActivation()
          )
          (13): GeneratorBlock(
            (LinearLayer1): Conv2d(256, 64, kernel_size=(3, 3), stride=(1, 1), padding=(1, 1), bias=False, padding_mode=reflect)
            (LinearLayer2): Conv2d(64, 256, kernel_size=(3, 3), stride=(1, 1), padding=(1, 1), bias=False, padding_mode=reflect)
            (NoiseLayer1): NoiseInjector()
            (NoiseLayer2): NoiseInjector()
            (NonLinearity1): BiasedActivation()
            (NonLinearity2): BiasedActivation()
          )
          (14): GeneratorBlock(
            (LinearLayer1): Conv2d(256, 64, kernel_size=(3, 3), stride=(1, 1), padding=(1, 1), bias=False, padding_mode=reflect)
            (LinearLayer2): Conv2d(64, 256, kernel_size=(3, 3), stride=(1, 1), padding=(1, 1), bias=False, padding_mode=reflect)
            (NoiseLayer1): NoiseInjector()
            (NoiseLayer2): NoiseInjector()
            (NonLinearity1): BiasedActivation()
            (NonLinearity2): BiasedActivation()
          )
          (15): GeneratorBlock(
            (LinearLayer1): Conv2d(256, 64, kernel_size=(3, 3), stride=(1, 1), padding=(1, 1), bias=False, padding_mode=reflect)
            (LinearLayer2): Conv2d(64, 256, kernel_size=(3, 3), stride=(1, 1), padding=(1, 1), bias=False, padding_mode=reflect)
            (NoiseLayer1): NoiseInjector()
            (NoiseLayer2): NoiseInjector()
            (NonLinearity1): BiasedActivation()
            (NonLinearity2): BiasedActivation()
          )
        )
        (ToFeatures): Conv2d(256, 512, kernel_size=(1, 1), stride=(1, 1), bias=False)
      )
      (3): GeneratorStage(
        (MainBlocks): ModuleList(
          (0): GeneratorBlock(
            (LinearLayer1): Conv2d(256, 64, kernel_size=(3, 3), stride=(1, 1), padding=(1, 1), bias=False, padding_mode=reflect)
            (LinearLayer2): Conv2d(64, 256, kernel_size=(3, 3), stride=(1, 1), padding=(1, 1), bias=False, padding_mode=reflect)
            (NoiseLayer1): NoiseInjector()
            (NoiseLayer2): NoiseInjector()
            (NonLinearity1): BiasedActivation()
            (NonLinearity2): BiasedActivation()
          )
          (1): GeneratorBlock(
            (LinearLayer1): Conv2d(256, 64, kernel_size=(3, 3), stride=(1, 1), padding=(1, 1), bias=False, padding_mode=reflect)
            (LinearLayer2): Conv2d(64, 256, kernel_size=(3, 3), stride=(1, 1), padding=(1, 1), bias=False, padding_mode=reflect)
            (NoiseLayer1): NoiseInjector()
            (NoiseLayer2): NoiseInjector()
            (NonLinearity1): BiasedActivation()
            (NonLinearity2): BiasedActivation()
          )
          (2): GeneratorBlock(
            (LinearLayer1): Conv2d(256, 64, kernel_size=(3, 3), stride=(1, 1), padding=(1, 1), bias=False, padding_mode=reflect)
            (LinearLayer2): Conv2d(64, 256, kernel_size=(3, 3), stride=(1, 1), padding=(1, 1), bias=False, padding_mode=reflect)
            (NoiseLayer1): NoiseInjector()
            (NoiseLayer2): NoiseInjector()
            (NonLinearity1): BiasedActivation()
            (NonLinearity2): BiasedActivation()
          )
          (3): GeneratorBlock(
            (LinearLayer1): Conv2d(256, 64, kernel_size=(3, 3), stride=(1, 1), padding=(1, 1), bias=False, padding_mode=reflect)
            (LinearLayer2): Conv2d(64, 256, kernel_size=(3, 3), stride=(1, 1), padding=(1, 1), bias=False, padding_mode=reflect)
            (NoiseLayer1): NoiseInjector()
            (NoiseLayer2): NoiseInjector()
            (NonLinearity1): BiasedActivation()
            (NonLinearity2): BiasedActivation()
          )
          (4): GeneratorBlock(
            (LinearLayer1): Conv2d(256, 64, kernel_size=(3, 3), stride=(1, 1), padding=(1, 1), bias=False, padding_mode=reflect)
            (LinearLayer2): Conv2d(64, 256, kernel_size=(3, 3), stride=(1, 1), padding=(1, 1), bias=False, padding_mode=reflect)
            (NoiseLayer1): NoiseInjector()
            (NoiseLayer2): NoiseInjector()
            (NonLinearity1): BiasedActivation()
            (NonLinearity2): BiasedActivation()
          )
          (5): GeneratorBlock(
            (LinearLayer1): Conv2d(256, 64, kernel_size=(3, 3), stride=(1, 1), padding=(1, 1), bias=False, padding_mode=reflect)
            (LinearLayer2): Conv2d(64, 256, kernel_size=(3, 3), stride=(1, 1), padding=(1, 1), bias=False, padding_mode=reflect)
            (NoiseLayer1): NoiseInjector()
            (NoiseLayer2): NoiseInjector()
            (NonLinearity1): BiasedActivation()
            (NonLinearity2): BiasedActivation()
          )
          (6): GeneratorBlock(
            (LinearLayer1): Conv2d(256, 64, kernel_size=(3, 3), stride=(1, 1), padding=(1, 1), bias=False, padding_mode=reflect)
            (LinearLayer2): Conv2d(64, 256, kernel_size=(3, 3), stride=(1, 1), padding=(1, 1), bias=False, padding_mode=reflect)
            (NoiseLayer1): NoiseInjector()
            (NoiseLayer2): NoiseInjector()
            (NonLinearity1): BiasedActivation()
            (NonLinearity2): BiasedActivation()
          )
          (7): GeneratorBlock(
            (LinearLayer1): Conv2d(256, 64, kernel_size=(3, 3), stride=(1, 1), padding=(1, 1), bias=False, padding_mode=reflect)
            (LinearLayer2): Conv2d(64, 256, kernel_size=(3, 3), stride=(1, 1), padding=(1, 1), bias=False, padding_mode=reflect)
            (NoiseLayer1): NoiseInjector()
            (NoiseLayer2): NoiseInjector()
            (NonLinearity1): BiasedActivation()
            (NonLinearity2): BiasedActivation()
          )
          (8): GeneratorBlock(
            (LinearLayer1): Conv2d(256, 64, kernel_size=(3, 3), stride=(1, 1), padding=(1, 1), bias=False, padding_mode=reflect)
            (LinearLayer2): Conv2d(64, 256, kernel_size=(3, 3), stride=(1, 1), padding=(1, 1), bias=False, padding_mode=reflect)
            (NoiseLayer1): NoiseInjector()
            (NoiseLayer2): NoiseInjector()
            (NonLinearity1): BiasedActivation()
            (NonLinearity2): BiasedActivation()
          )
          (9): GeneratorBlock(
            (LinearLayer1): Conv2d(256, 64, kernel_size=(3, 3), stride=(1, 1), padding=(1, 1), bias=False, padding_mode=reflect)
            (LinearLayer2): Conv2d(64, 256, kernel_size=(3, 3), stride=(1, 1), padding=(1, 1), bias=False, padding_mode=reflect)
            (NoiseLayer1): NoiseInjector()
            (NoiseLayer2): NoiseInjector()
            (NonLinearity1): BiasedActivation()
            (NonLinearity2): BiasedActivation()
          )
          (10): GeneratorBlock(
            (LinearLayer1): Conv2d(256, 64, kernel_size=(3, 3), stride=(1, 1), padding=(1, 1), bias=False, padding_mode=reflect)
            (LinearLayer2): Conv2d(64, 256, kernel_size=(3, 3), stride=(1, 1), padding=(1, 1), bias=False, padding_mode=reflect)
            (NoiseLayer1): NoiseInjector()
            (NoiseLayer2): NoiseInjector()
            (NonLinearity1): BiasedActivation()
            (NonLinearity2): BiasedActivation()
          )
          (11): GeneratorBlock(
            (LinearLayer1): Conv2d(256, 64, kernel_size=(3, 3), stride=(1, 1), padding=(1, 1), bias=False, padding_mode=reflect)
            (LinearLayer2): Conv2d(64, 256, kernel_size=(3, 3), stride=(1, 1), padding=(1, 1), bias=False, padding_mode=reflect)
            (NoiseLayer1): NoiseInjector()
            (NoiseLayer2): NoiseInjector()
            (NonLinearity1): BiasedActivation()
            (NonLinearity2): BiasedActivation()
          )
          (12): GeneratorBlock(
            (LinearLayer1): Conv2d(256, 64, kernel_size=(3, 3), stride=(1, 1), padding=(1, 1), bias=False, padding_mode=reflect)
            (LinearLayer2): Conv2d(64, 256, kernel_size=(3, 3), stride=(1, 1), padding=(1, 1), bias=False, padding_mode=reflect)
            (NoiseLayer1): NoiseInjector()
            (NoiseLayer2): NoiseInjector()
            (NonLinearity1): BiasedActivation()
            (NonLinearity2): BiasedActivation()
          )
          (13): GeneratorBlock(
            (LinearLayer1): Conv2d(256, 64, kernel_size=(3, 3), stride=(1, 1), padding=(1, 1), bias=False, padding_mode=reflect)
            (LinearLayer2): Conv2d(64, 256, kernel_size=(3, 3), stride=(1, 1), padding=(1, 1), bias=False, padding_mode=reflect)
            (NoiseLayer1): NoiseInjector()
            (NoiseLayer2): NoiseInjector()
            (NonLinearity1): BiasedActivation()
            (NonLinearity2): BiasedActivation()
          )
          (14): GeneratorBlock(
            (LinearLayer1): Conv2d(256, 64, kernel_size=(3, 3), stride=(1, 1), padding=(1, 1), bias=False, padding_mode=reflect)
            (LinearLayer2): Conv2d(64, 256, kernel_size=(3, 3), stride=(1, 1), padding=(1, 1), bias=False, padding_mode=reflect)
            (NoiseLayer1): NoiseInjector()
            (NoiseLayer2): NoiseInjector()
            (NonLinearity1): BiasedActivation()
            (NonLinearity2): BiasedActivation()
          )
          (15): GeneratorBlock(
            (LinearLayer1): Conv2d(256, 64, kernel_size=(3, 3), stride=(1, 1), padding=(1, 1), bias=False, padding_mode=reflect)
            (LinearLayer2): Conv2d(64, 256, kernel_size=(3, 3), stride=(1, 1), padding=(1, 1), bias=False, padding_mode=reflect)
            (NoiseLayer1): NoiseInjector()
            (NoiseLayer2): NoiseInjector()
            (NonLinearity1): BiasedActivation()
            (NonLinearity2): BiasedActivation()
          )
        )
        (ToFeatures): Conv2d(256, 512, kernel_size=(1, 1), stride=(1, 1), bias=False)
      )
    )
    (FeatureNoiseLayer): NoiseInjector()
    (FeatureNonLinearity): BiasedActivation()
    (Upsamplers): ModuleList(
      (0): GeneratorUpsampleBlock(
        (LinearLayer1): Conv2d(512, 128, kernel_size=(3, 3), stride=(1, 1), padding=(1, 1), bias=False, padding_mode=reflect)
        (LinearLayer2): Conv2d(128, 512, kernel_size=(1, 1), stride=(1, 1), bias=False)
        (LinearLayer3): Conv2d(128, 256, kernel_size=(3, 3), stride=(1, 1), padding=(1, 1), bias=False, padding_mode=reflect)
        (NoiseLayer1): NoiseInjector()
        (NoiseLayer2): NoiseInjector()
        (NoiseLayer3): NoiseInjector()
        (NonLinearity1): BiasedActivation()
        (NonLinearity2): BiasedActivation()
        (NonLinearity3): BiasedActivation()
        (Resampler): Upsampler()
        (ShortcutLayer): Conv2d(512, 256, kernel_size=(1, 1), stride=(1, 1), bias=False)
      )
      (1): GeneratorUpsampleBlock(
        (LinearLayer1): Conv2d(256, 64, kernel_size=(3, 3), stride=(1, 1), padding=(1, 1), bias=False, padding_mode=reflect)
        (LinearLayer2): Conv2d(64, 256, kernel_size=(1, 1), stride=(1, 1), bias=False)
        (LinearLayer3): Conv2d(64, 128, kernel_size=(3, 3), stride=(1, 1), padding=(1, 1), bias=False, padding_mode=reflect)
        (NoiseLayer1): NoiseInjector()
        (NoiseLayer2): NoiseInjector()
        (NoiseLayer3): NoiseInjector()
        (NonLinearity1): BiasedActivation()
        (NonLinearity2): BiasedActivation()
        (NonLinearity3): BiasedActivation()
        (Resampler): Upsampler()
        (ShortcutLayer): Conv2d(256, 128, kernel_size=(1, 1), stride=(1, 1), bias=False)
      )
    )
    (ToRGB): ModuleList(
      (0): Conv2d(256, 3, kernel_size=(1, 1), stride=(1, 1), bias=False)
      (1): Conv2d(128, 3, kernel_size=(1, 1), stride=(1, 1), bias=False)
    )
  )
)
CS143Generator(
  (sub_mean): MeanShift(3, 3, kernel_size=(1, 1), stride=(1, 1))
  (add_mean): MeanShift(3, 3, kernel_size=(1, 1), stride=(1, 1))
  (Main): Generator(
    (Stem): GeneratorPrologLayer(
      (LinearLayer): Conv2d(3, 256, kernel_size=(3, 3), stride=(1, 1), padding=(1, 1), bias=False, padding_mode=reflect)
      (NoiseLayer): NoiseInjector()
      (NonLinearity): BiasedActivation()
      (ToFeatures): Conv2d(256, 512, kernel_size=(1, 1), stride=(1, 1), bias=False)
    )
    (Stages): ModuleList(
      (0): GeneratorStage(
        (MainBlocks): ModuleList(
          (0): GeneratorBlock(
            (LinearLayer1): Conv2d(256, 64, kernel_size=(3, 3), stride=(1, 1), padding=(1, 1), bias=False, padding_mode=reflect)
            (LinearLayer2): Conv2d(64, 256, kernel_size=(3, 3), stride=(1, 1), padding=(1, 1), bias=False, padding_mode=reflect)
            (NoiseLayer1): NoiseInjector()
            (NoiseLayer2): NoiseInjector()
            (NonLinearity1): BiasedActivation()
            (NonLinearity2): BiasedActivation()
          )
          (1): GeneratorBlock(
            (LinearLayer1): Conv2d(256, 64, kernel_size=(3, 3), stride=(1, 1), padding=(1, 1), bias=False, padding_mode=reflect)
            (LinearLayer2): Conv2d(64, 256, kernel_size=(3, 3), stride=(1, 1), padding=(1, 1), bias=False, padding_mode=reflect)
            (NoiseLayer1): NoiseInjector()
            (NoiseLayer2): NoiseInjector()
            (NonLinearity1): BiasedActivation()
            (NonLinearity2): BiasedActivation()
          )
          (2): GeneratorBlock(
            (LinearLayer1): Conv2d(256, 64, kernel_size=(3, 3), stride=(1, 1), padding=(1, 1), bias=False, padding_mode=reflect)
            (LinearLayer2): Conv2d(64, 256, kernel_size=(3, 3), stride=(1, 1), padding=(1, 1), bias=False, padding_mode=reflect)
            (NoiseLayer1): NoiseInjector()
            (NoiseLayer2): NoiseInjector()
            (NonLinearity1): BiasedActivation()
            (NonLinearity2): BiasedActivation()
          )
          (3): GeneratorBlock(
            (LinearLayer1): Conv2d(256, 64, kernel_size=(3, 3), stride=(1, 1), padding=(1, 1), bias=False, padding_mode=reflect)
            (LinearLayer2): Conv2d(64, 256, kernel_size=(3, 3), stride=(1, 1), padding=(1, 1), bias=False, padding_mode=reflect)
            (NoiseLayer1): NoiseInjector()
            (NoiseLayer2): NoiseInjector()
            (NonLinearity1): BiasedActivation()
            (NonLinearity2): BiasedActivation()
          )
          (4): GeneratorBlock(
            (LinearLayer1): Conv2d(256, 64, kernel_size=(3, 3), stride=(1, 1), padding=(1, 1), bias=False, padding_mode=reflect)
            (LinearLayer2): Conv2d(64, 256, kernel_size=(3, 3), stride=(1, 1), padding=(1, 1), bias=False, padding_mode=reflect)
            (NoiseLayer1): NoiseInjector()
            (NoiseLayer2): NoiseInjector()
            (NonLinearity1): BiasedActivation()
            (NonLinearity2): BiasedActivation()
          )
          (5): GeneratorBlock(
            (LinearLayer1): Conv2d(256, 64, kernel_size=(3, 3), stride=(1, 1), padding=(1, 1), bias=False, padding_mode=reflect)
            (LinearLayer2): Conv2d(64, 256, kernel_size=(3, 3), stride=(1, 1), padding=(1, 1), bias=False, padding_mode=reflect)
            (NoiseLayer1): NoiseInjector()
            (NoiseLayer2): NoiseInjector()
            (NonLinearity1): BiasedActivation()
            (NonLinearity2): BiasedActivation()
          )
          (6): GeneratorBlock(
            (LinearLayer1): Conv2d(256, 64, kernel_size=(3, 3), stride=(1, 1), padding=(1, 1), bias=False, padding_mode=reflect)
            (LinearLayer2): Conv2d(64, 256, kernel_size=(3, 3), stride=(1, 1), padding=(1, 1), bias=False, padding_mode=reflect)
            (NoiseLayer1): NoiseInjector()
            (NoiseLayer2): NoiseInjector()
            (NonLinearity1): BiasedActivation()
            (NonLinearity2): BiasedActivation()
          )
          (7): GeneratorBlock(
            (LinearLayer1): Conv2d(256, 64, kernel_size=(3, 3), stride=(1, 1), padding=(1, 1), bias=False, padding_mode=reflect)
            (LinearLayer2): Conv2d(64, 256, kernel_size=(3, 3), stride=(1, 1), padding=(1, 1), bias=False, padding_mode=reflect)
            (NoiseLayer1): NoiseInjector()
            (NoiseLayer2): NoiseInjector()
            (NonLinearity1): BiasedActivation()
            (NonLinearity2): BiasedActivation()
          )
          (8): GeneratorBlock(
            (LinearLayer1): Conv2d(256, 64, kernel_size=(3, 3), stride=(1, 1), padding=(1, 1), bias=False, padding_mode=reflect)
            (LinearLayer2): Conv2d(64, 256, kernel_size=(3, 3), stride=(1, 1), padding=(1, 1), bias=False, padding_mode=reflect)
            (NoiseLayer1): NoiseInjector()
            (NoiseLayer2): NoiseInjector()
            (NonLinearity1): BiasedActivation()
            (NonLinearity2): BiasedActivation()
          )
          (9): GeneratorBlock(
            (LinearLayer1): Conv2d(256, 64, kernel_size=(3, 3), stride=(1, 1), padding=(1, 1), bias=False, padding_mode=reflect)
            (LinearLayer2): Conv2d(64, 256, kernel_size=(3, 3), stride=(1, 1), padding=(1, 1), bias=False, padding_mode=reflect)
            (NoiseLayer1): NoiseInjector()
            (NoiseLayer2): NoiseInjector()
            (NonLinearity1): BiasedActivation()
            (NonLinearity2): BiasedActivation()
          )
          (10): GeneratorBlock(
            (LinearLayer1): Conv2d(256, 64, kernel_size=(3, 3), stride=(1, 1), padding=(1, 1), bias=False, padding_mode=reflect)
            (LinearLayer2): Conv2d(64, 256, kernel_size=(3, 3), stride=(1, 1), padding=(1, 1), bias=False, padding_mode=reflect)
            (NoiseLayer1): NoiseInjector()
            (NoiseLayer2): NoiseInjector()
            (NonLinearity1): BiasedActivation()
            (NonLinearity2): BiasedActivation()
          )
          (11): GeneratorBlock(
            (LinearLayer1): Conv2d(256, 64, kernel_size=(3, 3), stride=(1, 1), padding=(1, 1), bias=False, padding_mode=reflect)
            (LinearLayer2): Conv2d(64, 256, kernel_size=(3, 3), stride=(1, 1), padding=(1, 1), bias=False, padding_mode=reflect)
            (NoiseLayer1): NoiseInjector()
            (NoiseLayer2): NoiseInjector()
            (NonLinearity1): BiasedActivation()
            (NonLinearity2): BiasedActivation()
          )
          (12): GeneratorBlock(
            (LinearLayer1): Conv2d(256, 64, kernel_size=(3, 3), stride=(1, 1), padding=(1, 1), bias=False, padding_mode=reflect)
            (LinearLayer2): Conv2d(64, 256, kernel_size=(3, 3), stride=(1, 1), padding=(1, 1), bias=False, padding_mode=reflect)
            (NoiseLayer1): NoiseInjector()
            (NoiseLayer2): NoiseInjector()
            (NonLinearity1): BiasedActivation()
            (NonLinearity2): BiasedActivation()
          )
          (13): GeneratorBlock(
            (LinearLayer1): Conv2d(256, 64, kernel_size=(3, 3), stride=(1, 1), padding=(1, 1), bias=False, padding_mode=reflect)
            (LinearLayer2): Conv2d(64, 256, kernel_size=(3, 3), stride=(1, 1), padding=(1, 1), bias=False, padding_mode=reflect)
            (NoiseLayer1): NoiseInjector()
            (NoiseLayer2): NoiseInjector()
            (NonLinearity1): BiasedActivation()
            (NonLinearity2): BiasedActivation()
          )
          (14): GeneratorBlock(
            (LinearLayer1): Conv2d(256, 64, kernel_size=(3, 3), stride=(1, 1), padding=(1, 1), bias=False, padding_mode=reflect)
            (LinearLayer2): Conv2d(64, 256, kernel_size=(3, 3), stride=(1, 1), padding=(1, 1), bias=False, padding_mode=reflect)
            (NoiseLayer1): NoiseInjector()
            (NoiseLayer2): NoiseInjector()
            (NonLinearity1): BiasedActivation()
            (NonLinearity2): BiasedActivation()
          )
          (15): GeneratorBlock(
            (LinearLayer1): Conv2d(256, 64, kernel_size=(3, 3), stride=(1, 1), padding=(1, 1), bias=False, padding_mode=reflect)
            (LinearLayer2): Conv2d(64, 256, kernel_size=(3, 3), stride=(1, 1), padding=(1, 1), bias=False, padding_mode=reflect)
            (NoiseLayer1): NoiseInjector()
            (NoiseLayer2): NoiseInjector()
            (NonLinearity1): BiasedActivation()
            (NonLinearity2): BiasedActivation()
          )
        )
        (ToFeatures): Conv2d(256, 512, kernel_size=(1, 1), stride=(1, 1), bias=False)
      )
      (1): GeneratorStage(
        (MainBlocks): ModuleList(
          (0): GeneratorBlock(
            (LinearLayer1): Conv2d(256, 64, kernel_size=(3, 3), stride=(1, 1), padding=(1, 1), bias=False, padding_mode=reflect)
            (LinearLayer2): Conv2d(64, 256, kernel_size=(3, 3), stride=(1, 1), padding=(1, 1), bias=False, padding_mode=reflect)
            (NoiseLayer1): NoiseInjector()
            (NoiseLayer2): NoiseInjector()
            (NonLinearity1): BiasedActivation()
            (NonLinearity2): BiasedActivation()
          )
          (1): GeneratorBlock(
            (LinearLayer1): Conv2d(256, 64, kernel_size=(3, 3), stride=(1, 1), padding=(1, 1), bias=False, padding_mode=reflect)
            (LinearLayer2): Conv2d(64, 256, kernel_size=(3, 3), stride=(1, 1), padding=(1, 1), bias=False, padding_mode=reflect)
            (NoiseLayer1): NoiseInjector()
            (NoiseLayer2): NoiseInjector()
            (NonLinearity1): BiasedActivation()
            (NonLinearity2): BiasedActivation()
          )
          (2): GeneratorBlock(
            (LinearLayer1): Conv2d(256, 64, kernel_size=(3, 3), stride=(1, 1), padding=(1, 1), bias=False, padding_mode=reflect)
            (LinearLayer2): Conv2d(64, 256, kernel_size=(3, 3), stride=(1, 1), padding=(1, 1), bias=False, padding_mode=reflect)
            (NoiseLayer1): NoiseInjector()
            (NoiseLayer2): NoiseInjector()
            (NonLinearity1): BiasedActivation()
            (NonLinearity2): BiasedActivation()
          )
          (3): GeneratorBlock(
            (LinearLayer1): Conv2d(256, 64, kernel_size=(3, 3), stride=(1, 1), padding=(1, 1), bias=False, padding_mode=reflect)
            (LinearLayer2): Conv2d(64, 256, kernel_size=(3, 3), stride=(1, 1), padding=(1, 1), bias=False, padding_mode=reflect)
            (NoiseLayer1): NoiseInjector()
            (NoiseLayer2): NoiseInjector()
            (NonLinearity1): BiasedActivation()
            (NonLinearity2): BiasedActivation()
          )
          (4): GeneratorBlock(
            (LinearLayer1): Conv2d(256, 64, kernel_size=(3, 3), stride=(1, 1), padding=(1, 1), bias=False, padding_mode=reflect)
            (LinearLayer2): Conv2d(64, 256, kernel_size=(3, 3), stride=(1, 1), padding=(1, 1), bias=False, padding_mode=reflect)
            (NoiseLayer1): NoiseInjector()
            (NoiseLayer2): NoiseInjector()
            (NonLinearity1): BiasedActivation()
            (NonLinearity2): BiasedActivation()
          )
          (5): GeneratorBlock(
            (LinearLayer1): Conv2d(256, 64, kernel_size=(3, 3), stride=(1, 1), padding=(1, 1), bias=False, padding_mode=reflect)
            (LinearLayer2): Conv2d(64, 256, kernel_size=(3, 3), stride=(1, 1), padding=(1, 1), bias=False, padding_mode=reflect)
            (NoiseLayer1): NoiseInjector()
            (NoiseLayer2): NoiseInjector()
            (NonLinearity1): BiasedActivation()
            (NonLinearity2): BiasedActivation()
          )
          (6): GeneratorBlock(
            (LinearLayer1): Conv2d(256, 64, kernel_size=(3, 3), stride=(1, 1), padding=(1, 1), bias=False, padding_mode=reflect)
            (LinearLayer2): Conv2d(64, 256, kernel_size=(3, 3), stride=(1, 1), padding=(1, 1), bias=False, padding_mode=reflect)
            (NoiseLayer1): NoiseInjector()
            (NoiseLayer2): NoiseInjector()
            (NonLinearity1): BiasedActivation()
            (NonLinearity2): BiasedActivation()
          )
          (7): GeneratorBlock(
            (LinearLayer1): Conv2d(256, 64, kernel_size=(3, 3), stride=(1, 1), padding=(1, 1), bias=False, padding_mode=reflect)
            (LinearLayer2): Conv2d(64, 256, kernel_size=(3, 3), stride=(1, 1), padding=(1, 1), bias=False, padding_mode=reflect)
            (NoiseLayer1): NoiseInjector()
            (NoiseLayer2): NoiseInjector()
            (NonLinearity1): BiasedActivation()
            (NonLinearity2): BiasedActivation()
          )
          (8): GeneratorBlock(
            (LinearLayer1): Conv2d(256, 64, kernel_size=(3, 3), stride=(1, 1), padding=(1, 1), bias=False, padding_mode=reflect)
            (LinearLayer2): Conv2d(64, 256, kernel_size=(3, 3), stride=(1, 1), padding=(1, 1), bias=False, padding_mode=reflect)
            (NoiseLayer1): NoiseInjector()
            (NoiseLayer2): NoiseInjector()
            (NonLinearity1): BiasedActivation()
            (NonLinearity2): BiasedActivation()
          )
          (9): GeneratorBlock(
            (LinearLayer1): Conv2d(256, 64, kernel_size=(3, 3), stride=(1, 1), padding=(1, 1), bias=False, padding_mode=reflect)
            (LinearLayer2): Conv2d(64, 256, kernel_size=(3, 3), stride=(1, 1), padding=(1, 1), bias=False, padding_mode=reflect)
            (NoiseLayer1): NoiseInjector()
            (NoiseLayer2): NoiseInjector()
            (NonLinearity1): BiasedActivation()
            (NonLinearity2): BiasedActivation()
          )
          (10): GeneratorBlock(
            (LinearLayer1): Conv2d(256, 64, kernel_size=(3, 3), stride=(1, 1), padding=(1, 1), bias=False, padding_mode=reflect)
            (LinearLayer2): Conv2d(64, 256, kernel_size=(3, 3), stride=(1, 1), padding=(1, 1), bias=False, padding_mode=reflect)
            (NoiseLayer1): NoiseInjector()
            (NoiseLayer2): NoiseInjector()
            (NonLinearity1): BiasedActivation()
            (NonLinearity2): BiasedActivation()
          )
          (11): GeneratorBlock(
            (LinearLayer1): Conv2d(256, 64, kernel_size=(3, 3), stride=(1, 1), padding=(1, 1), bias=False, padding_mode=reflect)
            (LinearLayer2): Conv2d(64, 256, kernel_size=(3, 3), stride=(1, 1), padding=(1, 1), bias=False, padding_mode=reflect)
            (NoiseLayer1): NoiseInjector()
            (NoiseLayer2): NoiseInjector()
            (NonLinearity1): BiasedActivation()
            (NonLinearity2): BiasedActivation()
          )
          (12): GeneratorBlock(
            (LinearLayer1): Conv2d(256, 64, kernel_size=(3, 3), stride=(1, 1), padding=(1, 1), bias=False, padding_mode=reflect)
            (LinearLayer2): Conv2d(64, 256, kernel_size=(3, 3), stride=(1, 1), padding=(1, 1), bias=False, padding_mode=reflect)
            (NoiseLayer1): NoiseInjector()
            (NoiseLayer2): NoiseInjector()
            (NonLinearity1): BiasedActivation()
            (NonLinearity2): BiasedActivation()
          )
          (13): GeneratorBlock(
            (LinearLayer1): Conv2d(256, 64, kernel_size=(3, 3), stride=(1, 1), padding=(1, 1), bias=False, padding_mode=reflect)
            (LinearLayer2): Conv2d(64, 256, kernel_size=(3, 3), stride=(1, 1), padding=(1, 1), bias=False, padding_mode=reflect)
            (NoiseLayer1): NoiseInjector()
            (NoiseLayer2): NoiseInjector()
            (NonLinearity1): BiasedActivation()
            (NonLinearity2): BiasedActivation()
          )
          (14): GeneratorBlock(
            (LinearLayer1): Conv2d(256, 64, kernel_size=(3, 3), stride=(1, 1), padding=(1, 1), bias=False, padding_mode=reflect)
            (LinearLayer2): Conv2d(64, 256, kernel_size=(3, 3), stride=(1, 1), padding=(1, 1), bias=False, padding_mode=reflect)
            (NoiseLayer1): NoiseInjector()
            (NoiseLayer2): NoiseInjector()
            (NonLinearity1): BiasedActivation()
            (NonLinearity2): BiasedActivation()
          )
          (15): GeneratorBlock(
            (LinearLayer1): Conv2d(256, 64, kernel_size=(3, 3), stride=(1, 1), padding=(1, 1), bias=False, padding_mode=reflect)
            (LinearLayer2): Conv2d(64, 256, kernel_size=(3, 3), stride=(1, 1), padding=(1, 1), bias=False, padding_mode=reflect)
            (NoiseLayer1): NoiseInjector()
            (NoiseLayer2): NoiseInjector()
            (NonLinearity1): BiasedActivation()
            (NonLinearity2): BiasedActivation()
          )
        )
        (ToFeatures): Conv2d(256, 512, kernel_size=(1, 1), stride=(1, 1), bias=False)
      )
      (2): GeneratorStage(
        (MainBlocks): ModuleList(
          (0): GeneratorBlock(
            (LinearLayer1): Conv2d(256, 64, kernel_size=(3, 3), stride=(1, 1), padding=(1, 1), bias=False, padding_mode=reflect)
            (LinearLayer2): Conv2d(64, 256, kernel_size=(3, 3), stride=(1, 1), padding=(1, 1), bias=False, padding_mode=reflect)
            (NoiseLayer1): NoiseInjector()
            (NoiseLayer2): NoiseInjector()
            (NonLinearity1): BiasedActivation()
            (NonLinearity2): BiasedActivation()
          )
          (1): GeneratorBlock(
            (LinearLayer1): Conv2d(256, 64, kernel_size=(3, 3), stride=(1, 1), padding=(1, 1), bias=False, padding_mode=reflect)
            (LinearLayer2): Conv2d(64, 256, kernel_size=(3, 3), stride=(1, 1), padding=(1, 1), bias=False, padding_mode=reflect)
            (NoiseLayer1): NoiseInjector()
            (NoiseLayer2): NoiseInjector()
            (NonLinearity1): BiasedActivation()
            (NonLinearity2): BiasedActivation()
          )
          (2): GeneratorBlock(
            (LinearLayer1): Conv2d(256, 64, kernel_size=(3, 3), stride=(1, 1), padding=(1, 1), bias=False, padding_mode=reflect)
            (LinearLayer2): Conv2d(64, 256, kernel_size=(3, 3), stride=(1, 1), padding=(1, 1), bias=False, padding_mode=reflect)
            (NoiseLayer1): NoiseInjector()
            (NoiseLayer2): NoiseInjector()
            (NonLinearity1): BiasedActivation()
            (NonLinearity2): BiasedActivation()
          )
          (3): GeneratorBlock(
            (LinearLayer1): Conv2d(256, 64, kernel_size=(3, 3), stride=(1, 1), padding=(1, 1), bias=False, padding_mode=reflect)
            (LinearLayer2): Conv2d(64, 256, kernel_size=(3, 3), stride=(1, 1), padding=(1, 1), bias=False, padding_mode=reflect)
            (NoiseLayer1): NoiseInjector()
            (NoiseLayer2): NoiseInjector()
            (NonLinearity1): BiasedActivation()
            (NonLinearity2): BiasedActivation()
          )
          (4): GeneratorBlock(
            (LinearLayer1): Conv2d(256, 64, kernel_size=(3, 3), stride=(1, 1), padding=(1, 1), bias=False, padding_mode=reflect)
            (LinearLayer2): Conv2d(64, 256, kernel_size=(3, 3), stride=(1, 1), padding=(1, 1), bias=False, padding_mode=reflect)
            (NoiseLayer1): NoiseInjector()
            (NoiseLayer2): NoiseInjector()
            (NonLinearity1): BiasedActivation()
            (NonLinearity2): BiasedActivation()
          )
          (5): GeneratorBlock(
            (LinearLayer1): Conv2d(256, 64, kernel_size=(3, 3), stride=(1, 1), padding=(1, 1), bias=False, padding_mode=reflect)
            (LinearLayer2): Conv2d(64, 256, kernel_size=(3, 3), stride=(1, 1), padding=(1, 1), bias=False, padding_mode=reflect)
            (NoiseLayer1): NoiseInjector()
            (NoiseLayer2): NoiseInjector()
            (NonLinearity1): BiasedActivation()
            (NonLinearity2): BiasedActivation()
          )
          (6): GeneratorBlock(
            (LinearLayer1): Conv2d(256, 64, kernel_size=(3, 3), stride=(1, 1), padding=(1, 1), bias=False, padding_mode=reflect)
            (LinearLayer2): Conv2d(64, 256, kernel_size=(3, 3), stride=(1, 1), padding=(1, 1), bias=False, padding_mode=reflect)
            (NoiseLayer1): NoiseInjector()
            (NoiseLayer2): NoiseInjector()
            (NonLinearity1): BiasedActivation()
            (NonLinearity2): BiasedActivation()
          )
          (7): GeneratorBlock(
            (LinearLayer1): Conv2d(256, 64, kernel_size=(3, 3), stride=(1, 1), padding=(1, 1), bias=False, padding_mode=reflect)
            (LinearLayer2): Conv2d(64, 256, kernel_size=(3, 3), stride=(1, 1), padding=(1, 1), bias=False, padding_mode=reflect)
            (NoiseLayer1): NoiseInjector()
            (NoiseLayer2): NoiseInjector()
            (NonLinearity1): BiasedActivation()
            (NonLinearity2): BiasedActivation()
          )
          (8): GeneratorBlock(
            (LinearLayer1): Conv2d(256, 64, kernel_size=(3, 3), stride=(1, 1), padding=(1, 1), bias=False, padding_mode=reflect)
            (LinearLayer2): Conv2d(64, 256, kernel_size=(3, 3), stride=(1, 1), padding=(1, 1), bias=False, padding_mode=reflect)
            (NoiseLayer1): NoiseInjector()
            (NoiseLayer2): NoiseInjector()
            (NonLinearity1): BiasedActivation()
            (NonLinearity2): BiasedActivation()
          )
          (9): GeneratorBlock(
            (LinearLayer1): Conv2d(256, 64, kernel_size=(3, 3), stride=(1, 1), padding=(1, 1), bias=False, padding_mode=reflect)
            (LinearLayer2): Conv2d(64, 256, kernel_size=(3, 3), stride=(1, 1), padding=(1, 1), bias=False, padding_mode=reflect)
            (NoiseLayer1): NoiseInjector()
            (NoiseLayer2): NoiseInjector()
            (NonLinearity1): BiasedActivation()
            (NonLinearity2): BiasedActivation()
          )
          (10): GeneratorBlock(
            (LinearLayer1): Conv2d(256, 64, kernel_size=(3, 3), stride=(1, 1), padding=(1, 1), bias=False, padding_mode=reflect)
            (LinearLayer2): Conv2d(64, 256, kernel_size=(3, 3), stride=(1, 1), padding=(1, 1), bias=False, padding_mode=reflect)
            (NoiseLayer1): NoiseInjector()
            (NoiseLayer2): NoiseInjector()
            (NonLinearity1): BiasedActivation()
            (NonLinearity2): BiasedActivation()
          )
          (11): GeneratorBlock(
            (LinearLayer1): Conv2d(256, 64, kernel_size=(3, 3), stride=(1, 1), padding=(1, 1), bias=False, padding_mode=reflect)
            (LinearLayer2): Conv2d(64, 256, kernel_size=(3, 3), stride=(1, 1), padding=(1, 1), bias=False, padding_mode=reflect)
            (NoiseLayer1): NoiseInjector()
            (NoiseLayer2): NoiseInjector()
            (NonLinearity1): BiasedActivation()
            (NonLinearity2): BiasedActivation()
          )
          (12): GeneratorBlock(
            (LinearLayer1): Conv2d(256, 64, kernel_size=(3, 3), stride=(1, 1), padding=(1, 1), bias=False, padding_mode=reflect)
            (LinearLayer2): Conv2d(64, 256, kernel_size=(3, 3), stride=(1, 1), padding=(1, 1), bias=False, padding_mode=reflect)
            (NoiseLayer1): NoiseInjector()
            (NoiseLayer2): NoiseInjector()
            (NonLinearity1): BiasedActivation()
            (NonLinearity2): BiasedActivation()
          )
          (13): GeneratorBlock(
            (LinearLayer1): Conv2d(256, 64, kernel_size=(3, 3), stride=(1, 1), padding=(1, 1), bias=False, padding_mode=reflect)
            (LinearLayer2): Conv2d(64, 256, kernel_size=(3, 3), stride=(1, 1), padding=(1, 1), bias=False, padding_mode=reflect)
            (NoiseLayer1): NoiseInjector()
            (NoiseLayer2): NoiseInjector()
            (NonLinearity1): BiasedActivation()
            (NonLinearity2): BiasedActivation()
          )
          (14): GeneratorBlock(
            (LinearLayer1): Conv2d(256, 64, kernel_size=(3, 3), stride=(1, 1), padding=(1, 1), bias=False, padding_mode=reflect)
            (LinearLayer2): Conv2d(64, 256, kernel_size=(3, 3), stride=(1, 1), padding=(1, 1), bias=False, padding_mode=reflect)
            (NoiseLayer1): NoiseInjector()
            (NoiseLayer2): NoiseInjector()
            (NonLinearity1): BiasedActivation()
            (NonLinearity2): BiasedActivation()
          )
          (15): GeneratorBlock(
            (LinearLayer1): Conv2d(256, 64, kernel_size=(3, 3), stride=(1, 1), padding=(1, 1), bias=False, padding_mode=reflect)
            (LinearLayer2): Conv2d(64, 256, kernel_size=(3, 3), stride=(1, 1), padding=(1, 1), bias=False, padding_mode=reflect)
            (NoiseLayer1): NoiseInjector()
            (NoiseLayer2): NoiseInjector()
            (NonLinearity1): BiasedActivation()
            (NonLinearity2): BiasedActivation()
          )
        )
        (ToFeatures): Conv2d(256, 512, kernel_size=(1, 1), stride=(1, 1), bias=False)
      )
      (3): GeneratorStage(
        (MainBlocks): ModuleList(
          (0): GeneratorBlock(
            (LinearLayer1): Conv2d(256, 64, kernel_size=(3, 3), stride=(1, 1), padding=(1, 1), bias=False, padding_mode=reflect)
            (LinearLayer2): Conv2d(64, 256, kernel_size=(3, 3), stride=(1, 1), padding=(1, 1), bias=False, padding_mode=reflect)
            (NoiseLayer1): NoiseInjector()
            (NoiseLayer2): NoiseInjector()
            (NonLinearity1): BiasedActivation()
            (NonLinearity2): BiasedActivation()
          )
          (1): GeneratorBlock(
            (LinearLayer1): Conv2d(256, 64, kernel_size=(3, 3), stride=(1, 1), padding=(1, 1), bias=False, padding_mode=reflect)
            (LinearLayer2): Conv2d(64, 256, kernel_size=(3, 3), stride=(1, 1), padding=(1, 1), bias=False, padding_mode=reflect)
            (NoiseLayer1): NoiseInjector()
            (NoiseLayer2): NoiseInjector()
            (NonLinearity1): BiasedActivation()
            (NonLinearity2): BiasedActivation()
          )
          (2): GeneratorBlock(
            (LinearLayer1): Conv2d(256, 64, kernel_size=(3, 3), stride=(1, 1), padding=(1, 1), bias=False, padding_mode=reflect)
            (LinearLayer2): Conv2d(64, 256, kernel_size=(3, 3), stride=(1, 1), padding=(1, 1), bias=False, padding_mode=reflect)
            (NoiseLayer1): NoiseInjector()
            (NoiseLayer2): NoiseInjector()
            (NonLinearity1): BiasedActivation()
            (NonLinearity2): BiasedActivation()
          )
          (3): GeneratorBlock(
            (LinearLayer1): Conv2d(256, 64, kernel_size=(3, 3), stride=(1, 1), padding=(1, 1), bias=False, padding_mode=reflect)
            (LinearLayer2): Conv2d(64, 256, kernel_size=(3, 3), stride=(1, 1), padding=(1, 1), bias=False, padding_mode=reflect)
            (NoiseLayer1): NoiseInjector()
            (NoiseLayer2): NoiseInjector()
            (NonLinearity1): BiasedActivation()
            (NonLinearity2): BiasedActivation()
          )
          (4): GeneratorBlock(
            (LinearLayer1): Conv2d(256, 64, kernel_size=(3, 3), stride=(1, 1), padding=(1, 1), bias=False, padding_mode=reflect)
            (LinearLayer2): Conv2d(64, 256, kernel_size=(3, 3), stride=(1, 1), padding=(1, 1), bias=False, padding_mode=reflect)
            (NoiseLayer1): NoiseInjector()
            (NoiseLayer2): NoiseInjector()
            (NonLinearity1): BiasedActivation()
            (NonLinearity2): BiasedActivation()
          )
          (5): GeneratorBlock(
            (LinearLayer1): Conv2d(256, 64, kernel_size=(3, 3), stride=(1, 1), padding=(1, 1), bias=False, padding_mode=reflect)
            (LinearLayer2): Conv2d(64, 256, kernel_size=(3, 3), stride=(1, 1), padding=(1, 1), bias=False, padding_mode=reflect)
            (NoiseLayer1): NoiseInjector()
            (NoiseLayer2): NoiseInjector()
            (NonLinearity1): BiasedActivation()
            (NonLinearity2): BiasedActivation()
          )
          (6): GeneratorBlock(
            (LinearLayer1): Conv2d(256, 64, kernel_size=(3, 3), stride=(1, 1), padding=(1, 1), bias=False, padding_mode=reflect)
            (LinearLayer2): Conv2d(64, 256, kernel_size=(3, 3), stride=(1, 1), padding=(1, 1), bias=False, padding_mode=reflect)
            (NoiseLayer1): NoiseInjector()
            (NoiseLayer2): NoiseInjector()
            (NonLinearity1): BiasedActivation()
            (NonLinearity2): BiasedActivation()
          )
          (7): GeneratorBlock(
            (LinearLayer1): Conv2d(256, 64, kernel_size=(3, 3), stride=(1, 1), padding=(1, 1), bias=False, padding_mode=reflect)
            (LinearLayer2): Conv2d(64, 256, kernel_size=(3, 3), stride=(1, 1), padding=(1, 1), bias=False, padding_mode=reflect)
            (NoiseLayer1): NoiseInjector()
            (NoiseLayer2): NoiseInjector()
            (NonLinearity1): BiasedActivation()
            (NonLinearity2): BiasedActivation()
          )
          (8): GeneratorBlock(
            (LinearLayer1): Conv2d(256, 64, kernel_size=(3, 3), stride=(1, 1), padding=(1, 1), bias=False, padding_mode=reflect)
            (LinearLayer2): Conv2d(64, 256, kernel_size=(3, 3), stride=(1, 1), padding=(1, 1), bias=False, padding_mode=reflect)
            (NoiseLayer1): NoiseInjector()
            (NoiseLayer2): NoiseInjector()
            (NonLinearity1): BiasedActivation()
            (NonLinearity2): BiasedActivation()
          )
          (9): GeneratorBlock(
            (LinearLayer1): Conv2d(256, 64, kernel_size=(3, 3), stride=(1, 1), padding=(1, 1), bias=False, padding_mode=reflect)
            (LinearLayer2): Conv2d(64, 256, kernel_size=(3, 3), stride=(1, 1), padding=(1, 1), bias=False, padding_mode=reflect)
            (NoiseLayer1): NoiseInjector()
            (NoiseLayer2): NoiseInjector()
            (NonLinearity1): BiasedActivation()
            (NonLinearity2): BiasedActivation()
          )
          (10): GeneratorBlock(
            (LinearLayer1): Conv2d(256, 64, kernel_size=(3, 3), stride=(1, 1), padding=(1, 1), bias=False, padding_mode=reflect)
            (LinearLayer2): Conv2d(64, 256, kernel_size=(3, 3), stride=(1, 1), padding=(1, 1), bias=False, padding_mode=reflect)
            (NoiseLayer1): NoiseInjector()
            (NoiseLayer2): NoiseInjector()
            (NonLinearity1): BiasedActivation()
            (NonLinearity2): BiasedActivation()
          )
          (11): GeneratorBlock(
            (LinearLayer1): Conv2d(256, 64, kernel_size=(3, 3), stride=(1, 1), padding=(1, 1), bias=False, padding_mode=reflect)
            (LinearLayer2): Conv2d(64, 256, kernel_size=(3, 3), stride=(1, 1), padding=(1, 1), bias=False, padding_mode=reflect)
            (NoiseLayer1): NoiseInjector()
            (NoiseLayer2): NoiseInjector()
            (NonLinearity1): BiasedActivation()
            (NonLinearity2): BiasedActivation()
          )
          (12): GeneratorBlock(
            (LinearLayer1): Conv2d(256, 64, kernel_size=(3, 3), stride=(1, 1), padding=(1, 1), bias=False, padding_mode=reflect)
            (LinearLayer2): Conv2d(64, 256, kernel_size=(3, 3), stride=(1, 1), padding=(1, 1), bias=False, padding_mode=reflect)
            (NoiseLayer1): NoiseInjector()
            (NoiseLayer2): NoiseInjector()
            (NonLinearity1): BiasedActivation()
            (NonLinearity2): BiasedActivation()
          )
          (13): GeneratorBlock(
            (LinearLayer1): Conv2d(256, 64, kernel_size=(3, 3), stride=(1, 1), padding=(1, 1), bias=False, padding_mode=reflect)
            (LinearLayer2): Conv2d(64, 256, kernel_size=(3, 3), stride=(1, 1), padding=(1, 1), bias=False, padding_mode=reflect)
            (NoiseLayer1): NoiseInjector()
            (NoiseLayer2): NoiseInjector()
            (NonLinearity1): BiasedActivation()
            (NonLinearity2): BiasedActivation()
          )
          (14): GeneratorBlock(
            (LinearLayer1): Conv2d(256, 64, kernel_size=(3, 3), stride=(1, 1), padding=(1, 1), bias=False, padding_mode=reflect)
            (LinearLayer2): Conv2d(64, 256, kernel_size=(3, 3), stride=(1, 1), padding=(1, 1), bias=False, padding_mode=reflect)
            (NoiseLayer1): NoiseInjector()
            (NoiseLayer2): NoiseInjector()
            (NonLinearity1): BiasedActivation()
            (NonLinearity2): BiasedActivation()
          )
          (15): GeneratorBlock(
            (LinearLayer1): Conv2d(256, 64, kernel_size=(3, 3), stride=(1, 1), padding=(1, 1), bias=False, padding_mode=reflect)
            (LinearLayer2): Conv2d(64, 256, kernel_size=(3, 3), stride=(1, 1), padding=(1, 1), bias=False, padding_mode=reflect)
            (NoiseLayer1): NoiseInjector()
            (NoiseLayer2): NoiseInjector()
            (NonLinearity1): BiasedActivation()
            (NonLinearity2): BiasedActivation()
          )
        )
        (ToFeatures): Conv2d(256, 512, kernel_size=(1, 1), stride=(1, 1), bias=False)
      )
    )
    (FeatureNoiseLayer): NoiseInjector()
    (FeatureNonLinearity): BiasedActivation()
    (Upsamplers): ModuleList(
      (0): GeneratorUpsampleBlock(
        (LinearLayer1): Conv2d(512, 128, kernel_size=(3, 3), stride=(1, 1), padding=(1, 1), bias=False, padding_mode=reflect)
        (LinearLayer2): Conv2d(128, 512, kernel_size=(1, 1), stride=(1, 1), bias=False)
        (LinearLayer3): Conv2d(128, 256, kernel_size=(3, 3), stride=(1, 1), padding=(1, 1), bias=False, padding_mode=reflect)
        (NoiseLayer1): NoiseInjector()
        (NoiseLayer2): NoiseInjector()
        (NoiseLayer3): NoiseInjector()
        (NonLinearity1): BiasedActivation()
        (NonLinearity2): BiasedActivation()
        (NonLinearity3): BiasedActivation()
        (Resampler): Upsampler()
        (ShortcutLayer): Conv2d(512, 256, kernel_size=(1, 1), stride=(1, 1), bias=False)
      )
      (1): GeneratorUpsampleBlock(
        (LinearLayer1): Conv2d(256, 64, kernel_size=(3, 3), stride=(1, 1), padding=(1, 1), bias=False, padding_mode=reflect)
        (LinearLayer2): Conv2d(64, 256, kernel_size=(1, 1), stride=(1, 1), bias=False)
        (LinearLayer3): Conv2d(64, 128, kernel_size=(3, 3), stride=(1, 1), padding=(1, 1), bias=False, padding_mode=reflect)
        (NoiseLayer1): NoiseInjector()
        (NoiseLayer2): NoiseInjector()
        (NoiseLayer3): NoiseInjector()
        (NonLinearity1): BiasedActivation()
        (NonLinearity2): BiasedActivation()
        (NonLinearity3): BiasedActivation()
        (Resampler): Upsampler()
        (ShortcutLayer): Conv2d(256, 128, kernel_size=(1, 1), stride=(1, 1), bias=False)
      )
    )
    (ToRGB): ModuleList(
      (0): Conv2d(256, 3, kernel_size=(1, 1), stride=(1, 1), bias=False)
      (1): Conv2d(128, 3, kernel_size=(1, 1), stride=(1, 1), bias=False)
    )
  )
)
CS143Generator(
  (sub_mean): MeanShift(3, 3, kernel_size=(1, 1), stride=(1, 1))
  (add_mean): MeanShift(3, 3, kernel_size=(1, 1), stride=(1, 1))
  (Main): Generator(
    (Stem): GeneratorPrologLayer(
      (LinearLayer): Conv2d(3, 256, kernel_size=(3, 3), stride=(1, 1), padding=(1, 1), bias=False, padding_mode=reflect)
      (NoiseLayer): NoiseInjector()
      (NonLinearity): BiasedActivation()
      (ToFeatures): Conv2d(256, 512, kernel_size=(1, 1), stride=(1, 1), bias=False)
    )
    (Stages): ModuleList(
      (0): GeneratorStage(
        (MainBlocks): ModuleList(
          (0): GeneratorBlock(
            (LinearLayer1): Conv2d(256, 64, kernel_size=(3, 3), stride=(1, 1), padding=(1, 1), bias=False, padding_mode=reflect)
            (LinearLayer2): Conv2d(64, 256, kernel_size=(3, 3), stride=(1, 1), padding=(1, 1), bias=False, padding_mode=reflect)
            (NoiseLayer1): NoiseInjector()
            (NoiseLayer2): NoiseInjector()
            (NonLinearity1): BiasedActivation()
            (NonLinearity2): BiasedActivation()
          )
          (1): GeneratorBlock(
            (LinearLayer1): Conv2d(256, 64, kernel_size=(3, 3), stride=(1, 1), padding=(1, 1), bias=False, padding_mode=reflect)
            (LinearLayer2): Conv2d(64, 256, kernel_size=(3, 3), stride=(1, 1), padding=(1, 1), bias=False, padding_mode=reflect)
            (NoiseLayer1): NoiseInjector()
            (NoiseLayer2): NoiseInjector()
            (NonLinearity1): BiasedActivation()
            (NonLinearity2): BiasedActivation()
          )
          (2): GeneratorBlock(
            (LinearLayer1): Conv2d(256, 64, kernel_size=(3, 3), stride=(1, 1), padding=(1, 1), bias=False, padding_mode=reflect)
            (LinearLayer2): Conv2d(64, 256, kernel_size=(3, 3), stride=(1, 1), padding=(1, 1), bias=False, padding_mode=reflect)
            (NoiseLayer1): NoiseInjector()
            (NoiseLayer2): NoiseInjector()
            (NonLinearity1): BiasedActivation()
            (NonLinearity2): BiasedActivation()
          )
          (3): GeneratorBlock(
            (LinearLayer1): Conv2d(256, 64, kernel_size=(3, 3), stride=(1, 1), padding=(1, 1), bias=False, padding_mode=reflect)
            (LinearLayer2): Conv2d(64, 256, kernel_size=(3, 3), stride=(1, 1), padding=(1, 1), bias=False, padding_mode=reflect)
            (NoiseLayer1): NoiseInjector()
            (NoiseLayer2): NoiseInjector()
            (NonLinearity1): BiasedActivation()
            (NonLinearity2): BiasedActivation()
          )
          (4): GeneratorBlock(
            (LinearLayer1): Conv2d(256, 64, kernel_size=(3, 3), stride=(1, 1), padding=(1, 1), bias=False, padding_mode=reflect)
            (LinearLayer2): Conv2d(64, 256, kernel_size=(3, 3), stride=(1, 1), padding=(1, 1), bias=False, padding_mode=reflect)
            (NoiseLayer1): NoiseInjector()
            (NoiseLayer2): NoiseInjector()
            (NonLinearity1): BiasedActivation()
            (NonLinearity2): BiasedActivation()
          )
          (5): GeneratorBlock(
            (LinearLayer1): Conv2d(256, 64, kernel_size=(3, 3), stride=(1, 1), padding=(1, 1), bias=False, padding_mode=reflect)
            (LinearLayer2): Conv2d(64, 256, kernel_size=(3, 3), stride=(1, 1), padding=(1, 1), bias=False, padding_mode=reflect)
            (NoiseLayer1): NoiseInjector()
            (NoiseLayer2): NoiseInjector()
            (NonLinearity1): BiasedActivation()
            (NonLinearity2): BiasedActivation()
          )
          (6): GeneratorBlock(
            (LinearLayer1): Conv2d(256, 64, kernel_size=(3, 3), stride=(1, 1), padding=(1, 1), bias=False, padding_mode=reflect)
            (LinearLayer2): Conv2d(64, 256, kernel_size=(3, 3), stride=(1, 1), padding=(1, 1), bias=False, padding_mode=reflect)
            (NoiseLayer1): NoiseInjector()
            (NoiseLayer2): NoiseInjector()
            (NonLinearity1): BiasedActivation()
            (NonLinearity2): BiasedActivation()
          )
          (7): GeneratorBlock(
            (LinearLayer1): Conv2d(256, 64, kernel_size=(3, 3), stride=(1, 1), padding=(1, 1), bias=False, padding_mode=reflect)
            (LinearLayer2): Conv2d(64, 256, kernel_size=(3, 3), stride=(1, 1), padding=(1, 1), bias=False, padding_mode=reflect)
            (NoiseLayer1): NoiseInjector()
            (NoiseLayer2): NoiseInjector()
            (NonLinearity1): BiasedActivation()
            (NonLinearity2): BiasedActivation()
          )
          (8): GeneratorBlock(
            (LinearLayer1): Conv2d(256, 64, kernel_size=(3, 3), stride=(1, 1), padding=(1, 1), bias=False, padding_mode=reflect)
            (LinearLayer2): Conv2d(64, 256, kernel_size=(3, 3), stride=(1, 1), padding=(1, 1), bias=False, padding_mode=reflect)
            (NoiseLayer1): NoiseInjector()
            (NoiseLayer2): NoiseInjector()
            (NonLinearity1): BiasedActivation()
            (NonLinearity2): BiasedActivation()
          )
          (9): GeneratorBlock(
            (LinearLayer1): Conv2d(256, 64, kernel_size=(3, 3), stride=(1, 1), padding=(1, 1), bias=False, padding_mode=reflect)
            (LinearLayer2): Conv2d(64, 256, kernel_size=(3, 3), stride=(1, 1), padding=(1, 1), bias=False, padding_mode=reflect)
            (NoiseLayer1): NoiseInjector()
            (NoiseLayer2): NoiseInjector()
            (NonLinearity1): BiasedActivation()
            (NonLinearity2): BiasedActivation()
          )
          (10): GeneratorBlock(
            (LinearLayer1): Conv2d(256, 64, kernel_size=(3, 3), stride=(1, 1), padding=(1, 1), bias=False, padding_mode=reflect)
            (LinearLayer2): Conv2d(64, 256, kernel_size=(3, 3), stride=(1, 1), padding=(1, 1), bias=False, padding_mode=reflect)
            (NoiseLayer1): NoiseInjector()
            (NoiseLayer2): NoiseInjector()
            (NonLinearity1): BiasedActivation()
            (NonLinearity2): BiasedActivation()
          )
          (11): GeneratorBlock(
            (LinearLayer1): Conv2d(256, 64, kernel_size=(3, 3), stride=(1, 1), padding=(1, 1), bias=False, padding_mode=reflect)
            (LinearLayer2): Conv2d(64, 256, kernel_size=(3, 3), stride=(1, 1), padding=(1, 1), bias=False, padding_mode=reflect)
            (NoiseLayer1): NoiseInjector()
            (NoiseLayer2): NoiseInjector()
            (NonLinearity1): BiasedActivation()
            (NonLinearity2): BiasedActivation()
          )
          (12): GeneratorBlock(
            (LinearLayer1): Conv2d(256, 64, kernel_size=(3, 3), stride=(1, 1), padding=(1, 1), bias=False, padding_mode=reflect)
            (LinearLayer2): Conv2d(64, 256, kernel_size=(3, 3), stride=(1, 1), padding=(1, 1), bias=False, padding_mode=reflect)
            (NoiseLayer1): NoiseInjector()
            (NoiseLayer2): NoiseInjector()
            (NonLinearity1): BiasedActivation()
            (NonLinearity2): BiasedActivation()
          )
          (13): GeneratorBlock(
            (LinearLayer1): Conv2d(256, 64, kernel_size=(3, 3), stride=(1, 1), padding=(1, 1), bias=False, padding_mode=reflect)
            (LinearLayer2): Conv2d(64, 256, kernel_size=(3, 3), stride=(1, 1), padding=(1, 1), bias=False, padding_mode=reflect)
            (NoiseLayer1): NoiseInjector()
            (NoiseLayer2): NoiseInjector()
            (NonLinearity1): BiasedActivation()
            (NonLinearity2): BiasedActivation()
          )
          (14): GeneratorBlock(
            (LinearLayer1): Conv2d(256, 64, kernel_size=(3, 3), stride=(1, 1), padding=(1, 1), bias=False, padding_mode=reflect)
            (LinearLayer2): Conv2d(64, 256, kernel_size=(3, 3), stride=(1, 1), padding=(1, 1), bias=False, padding_mode=reflect)
            (NoiseLayer1): NoiseInjector()
            (NoiseLayer2): NoiseInjector()
            (NonLinearity1): BiasedActivation()
            (NonLinearity2): BiasedActivation()
          )
          (15): GeneratorBlock(
            (LinearLayer1): Conv2d(256, 64, kernel_size=(3, 3), stride=(1, 1), padding=(1, 1), bias=False, padding_mode=reflect)
            (LinearLayer2): Conv2d(64, 256, kernel_size=(3, 3), stride=(1, 1), padding=(1, 1), bias=False, padding_mode=reflect)
            (NoiseLayer1): NoiseInjector()
            (NoiseLayer2): NoiseInjector()
            (NonLinearity1): BiasedActivation()
            (NonLinearity2): BiasedActivation()
          )
        )
        (ToFeatures): Conv2d(256, 512, kernel_size=(1, 1), stride=(1, 1), bias=False)
      )
      (1): GeneratorStage(
        (MainBlocks): ModuleList(
          (0): GeneratorBlock(
            (LinearLayer1): Conv2d(256, 64, kernel_size=(3, 3), stride=(1, 1), padding=(1, 1), bias=False, padding_mode=reflect)
            (LinearLayer2): Conv2d(64, 256, kernel_size=(3, 3), stride=(1, 1), padding=(1, 1), bias=False, padding_mode=reflect)
            (NoiseLayer1): NoiseInjector()
            (NoiseLayer2): NoiseInjector()
            (NonLinearity1): BiasedActivation()
            (NonLinearity2): BiasedActivation()
          )
          (1): GeneratorBlock(
            (LinearLayer1): Conv2d(256, 64, kernel_size=(3, 3), stride=(1, 1), padding=(1, 1), bias=False, padding_mode=reflect)
            (LinearLayer2): Conv2d(64, 256, kernel_size=(3, 3), stride=(1, 1), padding=(1, 1), bias=False, padding_mode=reflect)
            (NoiseLayer1): NoiseInjector()
            (NoiseLayer2): NoiseInjector()
            (NonLinearity1): BiasedActivation()
            (NonLinearity2): BiasedActivation()
          )
          (2): GeneratorBlock(
            (LinearLayer1): Conv2d(256, 64, kernel_size=(3, 3), stride=(1, 1), padding=(1, 1), bias=False, padding_mode=reflect)
            (LinearLayer2): Conv2d(64, 256, kernel_size=(3, 3), stride=(1, 1), padding=(1, 1), bias=False, padding_mode=reflect)
            (NoiseLayer1): NoiseInjector()
            (NoiseLayer2): NoiseInjector()
            (NonLinearity1): BiasedActivation()
            (NonLinearity2): BiasedActivation()
          )
          (3): GeneratorBlock(
            (LinearLayer1): Conv2d(256, 64, kernel_size=(3, 3), stride=(1, 1), padding=(1, 1), bias=False, padding_mode=reflect)
            (LinearLayer2): Conv2d(64, 256, kernel_size=(3, 3), stride=(1, 1), padding=(1, 1), bias=False, padding_mode=reflect)
            (NoiseLayer1): NoiseInjector()
            (NoiseLayer2): NoiseInjector()
            (NonLinearity1): BiasedActivation()
            (NonLinearity2): BiasedActivation()
          )
          (4): GeneratorBlock(
            (LinearLayer1): Conv2d(256, 64, kernel_size=(3, 3), stride=(1, 1), padding=(1, 1), bias=False, padding_mode=reflect)
            (LinearLayer2): Conv2d(64, 256, kernel_size=(3, 3), stride=(1, 1), padding=(1, 1), bias=False, padding_mode=reflect)
            (NoiseLayer1): NoiseInjector()
            (NoiseLayer2): NoiseInjector()
            (NonLinearity1): BiasedActivation()
            (NonLinearity2): BiasedActivation()
          )
          (5): GeneratorBlock(
            (LinearLayer1): Conv2d(256, 64, kernel_size=(3, 3), stride=(1, 1), padding=(1, 1), bias=False, padding_mode=reflect)
            (LinearLayer2): Conv2d(64, 256, kernel_size=(3, 3), stride=(1, 1), padding=(1, 1), bias=False, padding_mode=reflect)
            (NoiseLayer1): NoiseInjector()
            (NoiseLayer2): NoiseInjector()
            (NonLinearity1): BiasedActivation()
            (NonLinearity2): BiasedActivation()
          )
          (6): GeneratorBlock(
            (LinearLayer1): Conv2d(256, 64, kernel_size=(3, 3), stride=(1, 1), padding=(1, 1), bias=False, padding_mode=reflect)
            (LinearLayer2): Conv2d(64, 256, kernel_size=(3, 3), stride=(1, 1), padding=(1, 1), bias=False, padding_mode=reflect)
            (NoiseLayer1): NoiseInjector()
            (NoiseLayer2): NoiseInjector()
            (NonLinearity1): BiasedActivation()
            (NonLinearity2): BiasedActivation()
          )
          (7): GeneratorBlock(
            (LinearLayer1): Conv2d(256, 64, kernel_size=(3, 3), stride=(1, 1), padding=(1, 1), bias=False, padding_mode=reflect)
            (LinearLayer2): Conv2d(64, 256, kernel_size=(3, 3), stride=(1, 1), padding=(1, 1), bias=False, padding_mode=reflect)
            (NoiseLayer1): NoiseInjector()
            (NoiseLayer2): NoiseInjector()
            (NonLinearity1): BiasedActivation()
            (NonLinearity2): BiasedActivation()
          )
          (8): GeneratorBlock(
            (LinearLayer1): Conv2d(256, 64, kernel_size=(3, 3), stride=(1, 1), padding=(1, 1), bias=False, padding_mode=reflect)
            (LinearLayer2): Conv2d(64, 256, kernel_size=(3, 3), stride=(1, 1), padding=(1, 1), bias=False, padding_mode=reflect)
            (NoiseLayer1): NoiseInjector()
            (NoiseLayer2): NoiseInjector()
            (NonLinearity1): BiasedActivation()
            (NonLinearity2): BiasedActivation()
          )
          (9): GeneratorBlock(
            (LinearLayer1): Conv2d(256, 64, kernel_size=(3, 3), stride=(1, 1), padding=(1, 1), bias=False, padding_mode=reflect)
            (LinearLayer2): Conv2d(64, 256, kernel_size=(3, 3), stride=(1, 1), padding=(1, 1), bias=False, padding_mode=reflect)
            (NoiseLayer1): NoiseInjector()
            (NoiseLayer2): NoiseInjector()
            (NonLinearity1): BiasedActivation()
            (NonLinearity2): BiasedActivation()
          )
          (10): GeneratorBlock(
            (LinearLayer1): Conv2d(256, 64, kernel_size=(3, 3), stride=(1, 1), padding=(1, 1), bias=False, padding_mode=reflect)
            (LinearLayer2): Conv2d(64, 256, kernel_size=(3, 3), stride=(1, 1), padding=(1, 1), bias=False, padding_mode=reflect)
            (NoiseLayer1): NoiseInjector()
            (NoiseLayer2): NoiseInjector()
            (NonLinearity1): BiasedActivation()
            (NonLinearity2): BiasedActivation()
          )
          (11): GeneratorBlock(
            (LinearLayer1): Conv2d(256, 64, kernel_size=(3, 3), stride=(1, 1), padding=(1, 1), bias=False, padding_mode=reflect)
            (LinearLayer2): Conv2d(64, 256, kernel_size=(3, 3), stride=(1, 1), padding=(1, 1), bias=False, padding_mode=reflect)
            (NoiseLayer1): NoiseInjector()
            (NoiseLayer2): NoiseInjector()
            (NonLinearity1): BiasedActivation()
            (NonLinearity2): BiasedActivation()
          )
          (12): GeneratorBlock(
            (LinearLayer1): Conv2d(256, 64, kernel_size=(3, 3), stride=(1, 1), padding=(1, 1), bias=False, padding_mode=reflect)
            (LinearLayer2): Conv2d(64, 256, kernel_size=(3, 3), stride=(1, 1), padding=(1, 1), bias=False, padding_mode=reflect)
            (NoiseLayer1): NoiseInjector()
            (NoiseLayer2): NoiseInjector()
            (NonLinearity1): BiasedActivation()
            (NonLinearity2): BiasedActivation()
          )
          (13): GeneratorBlock(
            (LinearLayer1): Conv2d(256, 64, kernel_size=(3, 3), stride=(1, 1), padding=(1, 1), bias=False, padding_mode=reflect)
            (LinearLayer2): Conv2d(64, 256, kernel_size=(3, 3), stride=(1, 1), padding=(1, 1), bias=False, padding_mode=reflect)
            (NoiseLayer1): NoiseInjector()
            (NoiseLayer2): NoiseInjector()
            (NonLinearity1): BiasedActivation()
            (NonLinearity2): BiasedActivation()
          )
          (14): GeneratorBlock(
            (LinearLayer1): Conv2d(256, 64, kernel_size=(3, 3), stride=(1, 1), padding=(1, 1), bias=False, padding_mode=reflect)
            (LinearLayer2): Conv2d(64, 256, kernel_size=(3, 3), stride=(1, 1), padding=(1, 1), bias=False, padding_mode=reflect)
            (NoiseLayer1): NoiseInjector()
            (NoiseLayer2): NoiseInjector()
            (NonLinearity1): BiasedActivation()
            (NonLinearity2): BiasedActivation()
          )
          (15): GeneratorBlock(
            (LinearLayer1): Conv2d(256, 64, kernel_size=(3, 3), stride=(1, 1), padding=(1, 1), bias=False, padding_mode=reflect)
            (LinearLayer2): Conv2d(64, 256, kernel_size=(3, 3), stride=(1, 1), padding=(1, 1), bias=False, padding_mode=reflect)
            (NoiseLayer1): NoiseInjector()
            (NoiseLayer2): NoiseInjector()
            (NonLinearity1): BiasedActivation()
            (NonLinearity2): BiasedActivation()
          )
        )
        (ToFeatures): Conv2d(256, 512, kernel_size=(1, 1), stride=(1, 1), bias=False)
      )
      (2): GeneratorStage(
        (MainBlocks): ModuleList(
          (0): GeneratorBlock(
            (LinearLayer1): Conv2d(256, 64, kernel_size=(3, 3), stride=(1, 1), padding=(1, 1), bias=False, padding_mode=reflect)
            (LinearLayer2): Conv2d(64, 256, kernel_size=(3, 3), stride=(1, 1), padding=(1, 1), bias=False, padding_mode=reflect)
            (NoiseLayer1): NoiseInjector()
            (NoiseLayer2): NoiseInjector()
            (NonLinearity1): BiasedActivation()
            (NonLinearity2): BiasedActivation()
          )
          (1): GeneratorBlock(
            (LinearLayer1): Conv2d(256, 64, kernel_size=(3, 3), stride=(1, 1), padding=(1, 1), bias=False, padding_mode=reflect)
            (LinearLayer2): Conv2d(64, 256, kernel_size=(3, 3), stride=(1, 1), padding=(1, 1), bias=False, padding_mode=reflect)
            (NoiseLayer1): NoiseInjector()
            (NoiseLayer2): NoiseInjector()
            (NonLinearity1): BiasedActivation()
            (NonLinearity2): BiasedActivation()
          )
          (2): GeneratorBlock(
            (LinearLayer1): Conv2d(256, 64, kernel_size=(3, 3), stride=(1, 1), padding=(1, 1), bias=False, padding_mode=reflect)
            (LinearLayer2): Conv2d(64, 256, kernel_size=(3, 3), stride=(1, 1), padding=(1, 1), bias=False, padding_mode=reflect)
            (NoiseLayer1): NoiseInjector()
            (NoiseLayer2): NoiseInjector()
            (NonLinearity1): BiasedActivation()
            (NonLinearity2): BiasedActivation()
          )
          (3): GeneratorBlock(
            (LinearLayer1): Conv2d(256, 64, kernel_size=(3, 3), stride=(1, 1), padding=(1, 1), bias=False, padding_mode=reflect)
            (LinearLayer2): Conv2d(64, 256, kernel_size=(3, 3), stride=(1, 1), padding=(1, 1), bias=False, padding_mode=reflect)
            (NoiseLayer1): NoiseInjector()
            (NoiseLayer2): NoiseInjector()
            (NonLinearity1): BiasedActivation()
            (NonLinearity2): BiasedActivation()
          )
          (4): GeneratorBlock(
            (LinearLayer1): Conv2d(256, 64, kernel_size=(3, 3), stride=(1, 1), padding=(1, 1), bias=False, padding_mode=reflect)
            (LinearLayer2): Conv2d(64, 256, kernel_size=(3, 3), stride=(1, 1), padding=(1, 1), bias=False, padding_mode=reflect)
            (NoiseLayer1): NoiseInjector()
            (NoiseLayer2): NoiseInjector()
            (NonLinearity1): BiasedActivation()
            (NonLinearity2): BiasedActivation()
          )
          (5): GeneratorBlock(
            (LinearLayer1): Conv2d(256, 64, kernel_size=(3, 3), stride=(1, 1), padding=(1, 1), bias=False, padding_mode=reflect)
            (LinearLayer2): Conv2d(64, 256, kernel_size=(3, 3), stride=(1, 1), padding=(1, 1), bias=False, padding_mode=reflect)
            (NoiseLayer1): NoiseInjector()
            (NoiseLayer2): NoiseInjector()
            (NonLinearity1): BiasedActivation()
            (NonLinearity2): BiasedActivation()
          )
          (6): GeneratorBlock(
            (LinearLayer1): Conv2d(256, 64, kernel_size=(3, 3), stride=(1, 1), padding=(1, 1), bias=False, padding_mode=reflect)
            (LinearLayer2): Conv2d(64, 256, kernel_size=(3, 3), stride=(1, 1), padding=(1, 1), bias=False, padding_mode=reflect)
            (NoiseLayer1): NoiseInjector()
            (NoiseLayer2): NoiseInjector()
            (NonLinearity1): BiasedActivation()
            (NonLinearity2): BiasedActivation()
          )
          (7): GeneratorBlock(
            (LinearLayer1): Conv2d(256, 64, kernel_size=(3, 3), stride=(1, 1), padding=(1, 1), bias=False, padding_mode=reflect)
            (LinearLayer2): Conv2d(64, 256, kernel_size=(3, 3), stride=(1, 1), padding=(1, 1), bias=False, padding_mode=reflect)
            (NoiseLayer1): NoiseInjector()
            (NoiseLayer2): NoiseInjector()
            (NonLinearity1): BiasedActivation()
            (NonLinearity2): BiasedActivation()
          )
          (8): GeneratorBlock(
            (LinearLayer1): Conv2d(256, 64, kernel_size=(3, 3), stride=(1, 1), padding=(1, 1), bias=False, padding_mode=reflect)
            (LinearLayer2): Conv2d(64, 256, kernel_size=(3, 3), stride=(1, 1), padding=(1, 1), bias=False, padding_mode=reflect)
            (NoiseLayer1): NoiseInjector()
            (NoiseLayer2): NoiseInjector()
            (NonLinearity1): BiasedActivation()
            (NonLinearity2): BiasedActivation()
          )
          (9): GeneratorBlock(
            (LinearLayer1): Conv2d(256, 64, kernel_size=(3, 3), stride=(1, 1), padding=(1, 1), bias=False, padding_mode=reflect)
            (LinearLayer2): Conv2d(64, 256, kernel_size=(3, 3), stride=(1, 1), padding=(1, 1), bias=False, padding_mode=reflect)
            (NoiseLayer1): NoiseInjector()
            (NoiseLayer2): NoiseInjector()
            (NonLinearity1): BiasedActivation()
            (NonLinearity2): BiasedActivation()
          )
          (10): GeneratorBlock(
            (LinearLayer1): Conv2d(256, 64, kernel_size=(3, 3), stride=(1, 1), padding=(1, 1), bias=False, padding_mode=reflect)
            (LinearLayer2): Conv2d(64, 256, kernel_size=(3, 3), stride=(1, 1), padding=(1, 1), bias=False, padding_mode=reflect)
            (NoiseLayer1): NoiseInjector()
            (NoiseLayer2): NoiseInjector()
            (NonLinearity1): BiasedActivation()
            (NonLinearity2): BiasedActivation()
          )
          (11): GeneratorBlock(
            (LinearLayer1): Conv2d(256, 64, kernel_size=(3, 3), stride=(1, 1), padding=(1, 1), bias=False, padding_mode=reflect)
            (LinearLayer2): Conv2d(64, 256, kernel_size=(3, 3), stride=(1, 1), padding=(1, 1), bias=False, padding_mode=reflect)
            (NoiseLayer1): NoiseInjector()
            (NoiseLayer2): NoiseInjector()
            (NonLinearity1): BiasedActivation()
            (NonLinearity2): BiasedActivation()
          )
          (12): GeneratorBlock(
            (LinearLayer1): Conv2d(256, 64, kernel_size=(3, 3), stride=(1, 1), padding=(1, 1), bias=False, padding_mode=reflect)
            (LinearLayer2): Conv2d(64, 256, kernel_size=(3, 3), stride=(1, 1), padding=(1, 1), bias=False, padding_mode=reflect)
            (NoiseLayer1): NoiseInjector()
            (NoiseLayer2): NoiseInjector()
            (NonLinearity1): BiasedActivation()
            (NonLinearity2): BiasedActivation()
          )
          (13): GeneratorBlock(
            (LinearLayer1): Conv2d(256, 64, kernel_size=(3, 3), stride=(1, 1), padding=(1, 1), bias=False, padding_mode=reflect)
            (LinearLayer2): Conv2d(64, 256, kernel_size=(3, 3), stride=(1, 1), padding=(1, 1), bias=False, padding_mode=reflect)
            (NoiseLayer1): NoiseInjector()
            (NoiseLayer2): NoiseInjector()
            (NonLinearity1): BiasedActivation()
            (NonLinearity2): BiasedActivation()
          )
          (14): GeneratorBlock(
            (LinearLayer1): Conv2d(256, 64, kernel_size=(3, 3), stride=(1, 1), padding=(1, 1), bias=False, padding_mode=reflect)
            (LinearLayer2): Conv2d(64, 256, kernel_size=(3, 3), stride=(1, 1), padding=(1, 1), bias=False, padding_mode=reflect)
            (NoiseLayer1): NoiseInjector()
            (NoiseLayer2): NoiseInjector()
            (NonLinearity1): BiasedActivation()
            (NonLinearity2): BiasedActivation()
          )
          (15): GeneratorBlock(
            (LinearLayer1): Conv2d(256, 64, kernel_size=(3, 3), stride=(1, 1), padding=(1, 1), bias=False, padding_mode=reflect)
            (LinearLayer2): Conv2d(64, 256, kernel_size=(3, 3), stride=(1, 1), padding=(1, 1), bias=False, padding_mode=reflect)
            (NoiseLayer1): NoiseInjector()
            (NoiseLayer2): NoiseInjector()
            (NonLinearity1): BiasedActivation()
            (NonLinearity2): BiasedActivation()
          )
        )
        (ToFeatures): Conv2d(256, 512, kernel_size=(1, 1), stride=(1, 1), bias=False)
      )
      (3): GeneratorStage(
        (MainBlocks): ModuleList(
          (0): GeneratorBlock(
            (LinearLayer1): Conv2d(256, 64, kernel_size=(3, 3), stride=(1, 1), padding=(1, 1), bias=False, padding_mode=reflect)
            (LinearLayer2): Conv2d(64, 256, kernel_size=(3, 3), stride=(1, 1), padding=(1, 1), bias=False, padding_mode=reflect)
            (NoiseLayer1): NoiseInjector()
            (NoiseLayer2): NoiseInjector()
            (NonLinearity1): BiasedActivation()
            (NonLinearity2): BiasedActivation()
          )
          (1): GeneratorBlock(
            (LinearLayer1): Conv2d(256, 64, kernel_size=(3, 3), stride=(1, 1), padding=(1, 1), bias=False, padding_mode=reflect)
            (LinearLayer2): Conv2d(64, 256, kernel_size=(3, 3), stride=(1, 1), padding=(1, 1), bias=False, padding_mode=reflect)
            (NoiseLayer1): NoiseInjector()
            (NoiseLayer2): NoiseInjector()
            (NonLinearity1): BiasedActivation()
            (NonLinearity2): BiasedActivation()
          )
          (2): GeneratorBlock(
            (LinearLayer1): Conv2d(256, 64, kernel_size=(3, 3), stride=(1, 1), padding=(1, 1), bias=False, padding_mode=reflect)
            (LinearLayer2): Conv2d(64, 256, kernel_size=(3, 3), stride=(1, 1), padding=(1, 1), bias=False, padding_mode=reflect)
            (NoiseLayer1): NoiseInjector()
            (NoiseLayer2): NoiseInjector()
            (NonLinearity1): BiasedActivation()
            (NonLinearity2): BiasedActivation()
          )
          (3): GeneratorBlock(
            (LinearLayer1): Conv2d(256, 64, kernel_size=(3, 3), stride=(1, 1), padding=(1, 1), bias=False, padding_mode=reflect)
            (LinearLayer2): Conv2d(64, 256, kernel_size=(3, 3), stride=(1, 1), padding=(1, 1), bias=False, padding_mode=reflect)
            (NoiseLayer1): NoiseInjector()
            (NoiseLayer2): NoiseInjector()
            (NonLinearity1): BiasedActivation()
            (NonLinearity2): BiasedActivation()
          )
          (4): GeneratorBlock(
            (LinearLayer1): Conv2d(256, 64, kernel_size=(3, 3), stride=(1, 1), padding=(1, 1), bias=False, padding_mode=reflect)
            (LinearLayer2): Conv2d(64, 256, kernel_size=(3, 3), stride=(1, 1), padding=(1, 1), bias=False, padding_mode=reflect)
            (NoiseLayer1): NoiseInjector()
            (NoiseLayer2): NoiseInjector()
            (NonLinearity1): BiasedActivation()
            (NonLinearity2): BiasedActivation()
          )
          (5): GeneratorBlock(
            (LinearLayer1): Conv2d(256, 64, kernel_size=(3, 3), stride=(1, 1), padding=(1, 1), bias=False, padding_mode=reflect)
            (LinearLayer2): Conv2d(64, 256, kernel_size=(3, 3), stride=(1, 1), padding=(1, 1), bias=False, padding_mode=reflect)
            (NoiseLayer1): NoiseInjector()
            (NoiseLayer2): NoiseInjector()
            (NonLinearity1): BiasedActivation()
            (NonLinearity2): BiasedActivation()
          )
          (6): GeneratorBlock(
            (LinearLayer1): Conv2d(256, 64, kernel_size=(3, 3), stride=(1, 1), padding=(1, 1), bias=False, padding_mode=reflect)
            (LinearLayer2): Conv2d(64, 256, kernel_size=(3, 3), stride=(1, 1), padding=(1, 1), bias=False, padding_mode=reflect)
            (NoiseLayer1): NoiseInjector()
            (NoiseLayer2): NoiseInjector()
            (NonLinearity1): BiasedActivation()
            (NonLinearity2): BiasedActivation()
          )
          (7): GeneratorBlock(
            (LinearLayer1): Conv2d(256, 64, kernel_size=(3, 3), stride=(1, 1), padding=(1, 1), bias=False, padding_mode=reflect)
            (LinearLayer2): Conv2d(64, 256, kernel_size=(3, 3), stride=(1, 1), padding=(1, 1), bias=False, padding_mode=reflect)
            (NoiseLayer1): NoiseInjector()
            (NoiseLayer2): NoiseInjector()
            (NonLinearity1): BiasedActivation()
            (NonLinearity2): BiasedActivation()
          )
          (8): GeneratorBlock(
            (LinearLayer1): Conv2d(256, 64, kernel_size=(3, 3), stride=(1, 1), padding=(1, 1), bias=False, padding_mode=reflect)
            (LinearLayer2): Conv2d(64, 256, kernel_size=(3, 3), stride=(1, 1), padding=(1, 1), bias=False, padding_mode=reflect)
            (NoiseLayer1): NoiseInjector()
            (NoiseLayer2): NoiseInjector()
            (NonLinearity1): BiasedActivation()
            (NonLinearity2): BiasedActivation()
          )
          (9): GeneratorBlock(
            (LinearLayer1): Conv2d(256, 64, kernel_size=(3, 3), stride=(1, 1), padding=(1, 1), bias=False, padding_mode=reflect)
            (LinearLayer2): Conv2d(64, 256, kernel_size=(3, 3), stride=(1, 1), padding=(1, 1), bias=False, padding_mode=reflect)
            (NoiseLayer1): NoiseInjector()
            (NoiseLayer2): NoiseInjector()
            (NonLinearity1): BiasedActivation()
            (NonLinearity2): BiasedActivation()
          )
          (10): GeneratorBlock(
            (LinearLayer1): Conv2d(256, 64, kernel_size=(3, 3), stride=(1, 1), padding=(1, 1), bias=False, padding_mode=reflect)
            (LinearLayer2): Conv2d(64, 256, kernel_size=(3, 3), stride=(1, 1), padding=(1, 1), bias=False, padding_mode=reflect)
            (NoiseLayer1): NoiseInjector()
            (NoiseLayer2): NoiseInjector()
            (NonLinearity1): BiasedActivation()
            (NonLinearity2): BiasedActivation()
          )
          (11): GeneratorBlock(
            (LinearLayer1): Conv2d(256, 64, kernel_size=(3, 3), stride=(1, 1), padding=(1, 1), bias=False, padding_mode=reflect)
            (LinearLayer2): Conv2d(64, 256, kernel_size=(3, 3), stride=(1, 1), padding=(1, 1), bias=False, padding_mode=reflect)
            (NoiseLayer1): NoiseInjector()
            (NoiseLayer2): NoiseInjector()
            (NonLinearity1): BiasedActivation()
            (NonLinearity2): BiasedActivation()
          )
          (12): GeneratorBlock(
            (LinearLayer1): Conv2d(256, 64, kernel_size=(3, 3), stride=(1, 1), padding=(1, 1), bias=False, padding_mode=reflect)
            (LinearLayer2): Conv2d(64, 256, kernel_size=(3, 3), stride=(1, 1), padding=(1, 1), bias=False, padding_mode=reflect)
            (NoiseLayer1): NoiseInjector()
            (NoiseLayer2): NoiseInjector()
            (NonLinearity1): BiasedActivation()
            (NonLinearity2): BiasedActivation()
          )
          (13): GeneratorBlock(
            (LinearLayer1): Conv2d(256, 64, kernel_size=(3, 3), stride=(1, 1), padding=(1, 1), bias=False, padding_mode=reflect)
            (LinearLayer2): Conv2d(64, 256, kernel_size=(3, 3), stride=(1, 1), padding=(1, 1), bias=False, padding_mode=reflect)
            (NoiseLayer1): NoiseInjector()
            (NoiseLayer2): NoiseInjector()
            (NonLinearity1): BiasedActivation()
            (NonLinearity2): BiasedActivation()
          )
          (14): GeneratorBlock(
            (LinearLayer1): Conv2d(256, 64, kernel_size=(3, 3), stride=(1, 1), padding=(1, 1), bias=False, padding_mode=reflect)
            (LinearLayer2): Conv2d(64, 256, kernel_size=(3, 3), stride=(1, 1), padding=(1, 1), bias=False, padding_mode=reflect)
            (NoiseLayer1): NoiseInjector()
            (NoiseLayer2): NoiseInjector()
            (NonLinearity1): BiasedActivation()
            (NonLinearity2): BiasedActivation()
          )
          (15): GeneratorBlock(
            (LinearLayer1): Conv2d(256, 64, kernel_size=(3, 3), stride=(1, 1), padding=(1, 1), bias=False, padding_mode=reflect)
            (LinearLayer2): Conv2d(64, 256, kernel_size=(3, 3), stride=(1, 1), padding=(1, 1), bias=False, padding_mode=reflect)
            (NoiseLayer1): NoiseInjector()
            (NoiseLayer2): NoiseInjector()
            (NonLinearity1): BiasedActivation()
            (NonLinearity2): BiasedActivation()
          )
        )
        (ToFeatures): Conv2d(256, 512, kernel_size=(1, 1), stride=(1, 1), bias=False)
      )
    )
    (FeatureNoiseLayer): NoiseInjector()
    (FeatureNonLinearity): BiasedActivation()
    (Upsamplers): ModuleList(
      (0): GeneratorUpsampleBlock(
        (LinearLayer1): Conv2d(512, 128, kernel_size=(3, 3), stride=(1, 1), padding=(1, 1), bias=False, padding_mode=reflect)
        (LinearLayer2): Conv2d(128, 512, kernel_size=(1, 1), stride=(1, 1), bias=False)
        (LinearLayer3): Conv2d(128, 256, kernel_size=(3, 3), stride=(1, 1), padding=(1, 1), bias=False, padding_mode=reflect)
        (NoiseLayer1): NoiseInjector()
        (NoiseLayer2): NoiseInjector()
        (NoiseLayer3): NoiseInjector()
        (NonLinearity1): BiasedActivation()
        (NonLinearity2): BiasedActivation()
        (NonLinearity3): BiasedActivation()
        (Resampler): Upsampler()
        (ShortcutLayer): Conv2d(512, 256, kernel_size=(1, 1), stride=(1, 1), bias=False)
      )
      (1): GeneratorUpsampleBlock(
        (LinearLayer1): Conv2d(256, 64, kernel_size=(3, 3), stride=(1, 1), padding=(1, 1), bias=False, padding_mode=reflect)
        (LinearLayer2): Conv2d(64, 256, kernel_size=(1, 1), stride=(1, 1), bias=False)
        (LinearLayer3): Conv2d(64, 128, kernel_size=(3, 3), stride=(1, 1), padding=(1, 1), bias=False, padding_mode=reflect)
        (NoiseLayer1): NoiseInjector()
        (NoiseLayer2): NoiseInjector()
        (NoiseLayer3): NoiseInjector()
        (NonLinearity1): BiasedActivation()
        (NonLinearity2): BiasedActivation()
        (NonLinearity3): BiasedActivation()
        (Resampler): Upsampler()
        (ShortcutLayer): Conv2d(256, 128, kernel_size=(1, 1), stride=(1, 1), bias=False)
      )
    )
    (ToRGB): ModuleList(
      (0): Conv2d(256, 3, kernel_size=(1, 1), stride=(1, 1), bias=False)
      (1): Conv2d(128, 3, kernel_size=(1, 1), stride=(1, 1), bias=False)
    )
  )
)
[Epoch 1]	Learning rate: 1.00e-4
